model_checkpoints/simple_net_dropout/checkpoint.pt (torch, 692002 bytes, 24 tensors)

conv_layers.0.weight f4 [10, 1, 5, 5]
000000 d1 a6 60 3e 65 34 5d 3e 50 1f 15 3e e4 64 0c 3e
       0.21938635 0.21602018 0.14562726 0.13710362
000010 55 ff d7 3d af d5 a6 3c 3d 12 e9 3e e6 4f ea 3e
       0.105467476 0.020365564 0.45521727 0.45764083
000020 c0 50 7a 3c 1b 3a 3d bd d5 ce 84 be 7e 6d 22 be
       0.015278041 -0.04619799 -0.2593905 -0.1586208
000030 f5 dc 73 be c7 bb 0e bd e5 a4 88 bb f8 08 0c bd
       -0.23814757 -0.034847047 -0.0041700476 -0.03418824
000040 b9 ca b3 be b7 7b 98 be b5 66 42 bd ab 15 74 bd
       -0.35115603 -0.29781887 -0.04746123 -0.059590977
000050 b1 4e ab 3d 01 fc 35 be 13 49 15 bd 65 7c cc bd
       0.083646186 -0.17771913 -0.036446642 -0.09984664
000060 fc 40 5a b9 5e 4d 12 3d af e6 ec bd 67 0f 99 3d
       -0.00020814309 0.035718314 -0.11567437 0.07473641
000070 fe 18 45 be 9d 50 ae bd 1d 2f 74 bc 1a 8b f5 bc
       -0.19247815 -0.085114695 -0.014903811 -0.029973555
000080 6c 29 2e be f0 0f 86 3c 48 5d 3d bd 9b 69 29 be
       -0.17007989 0.016365021 -0.046231538 -0.16544192
000090 1a 3c 65 3d a2 b8 6d bc 75 b8 48 bd d9 41 30 be
       0.05596552 -0.014509352 -0.049004037 -0.17212619
0000a0 a3 6c 04 be f0 9e 6e 39 55 df e4 bd 9b 72 13 be
       -0.12932067 0.00022756658 -0.1117541 -0.14399187
0000b0 6e 0d ae 3d 65 ce fd bd e3 13 e4 3c 8b c2 3a be
       0.08498655 -0.12392882 0.027841514 -0.18238275
0000c0 2e 4a 59 3d cc c1 1e be b8 9d 62 be fb 61 d7 3c
       0.05304926 -0.15503615 -0.22130477 0.026291838
0000d0 5b e8 2e be 72 89 59 bd 88 23 8c be 57 c2 41 3d
       -0.17080824 -0.053109594 -0.27370858 0.047304478
0000e0 40 a5 c5 3d 1b 23 b1 bd 13 c8 0f 3c c5 90 84 3d
       0.096506596 -0.08649274 0.008775729 0.06472925
0000f0 20 a6 8a 3e e8 66 2b bd 94 9a 35 3e 70 eb 1d 3e
       0.27079868 -0.041846186 0.17734748 0.15421844
000100 35 cc c7 3d 06 f1 f9 3d c5 fa 03 be e0 5a 49 3e
       0.09755746 0.12204175 -0.1288863 0.19663572
000110 b8 f2 5f 3e 5f 89 b1 bc 7a 7a e5 bd da 12 2a 3e
       0.21869934 -0.021671949 -0.11205001 0.16608754
000120 93 63 5b 3e f1 cd ee bd 93 77 96 3d 34 56 ec 3d
       0.21424703 -0.11660374 0.07347026 0.115398794
000130 4f c7 f7 3c d8 e4 45 3e cc 16 a9 3d 61 d1 04 3e
       0.030246405 0.19325578 0.08256301 0.12970497
000140 35 0e 09 3e 1c e2 f1 3d 56 a9 51 3d 02 98 50 3e
       0.13384326 0.11810705 0.051186882 0.20370486
000150 70 72 3d bd e4 a5 46 bc 45 76 08 bd 47 1e 3d 3d
       -0.046251714 -0.012124512 -0.033315916 0.046171453
000160 69 e1 c7 3d ef 84 78 3e a1 39 73 bd 59 70 09 3e
       0.097597905 0.2426946 -0.05938113 0.13421763
000170 a7 ed 35 bd 03 c0 42 3e 7e c7 f6 3d 04 ee bc 3d
       -0.044416096 0.19018559 0.12049769 0.092250854
000180 01 cd b6 3d 18 48 a2 3d 40 0a f0 3d 1b 98 b4 bc
       0.0892582 0.07923907 0.11720705 -0.022045186
000190 b5 91 6d 3d 78 e2 82 3e 7d dc 65 3e ce d5 f9 bc
       0.058000285 0.25563407 0.22447391 -0.030497458
0001a0 35 90 24 bd 54 9f 91 3e 2d a5 c0 bd 9a cf 22 bd
       -0.04017659 0.2844187 -0.09406505 -0.039748766
0001b0 74 f2 ea bd 18 4c 32 3e 26 a9 27 be 44 c0 ec bd
       -0.114720255 0.1741184 -0.16373119 -0.11560109
0001c0 15 d2 0c be ea 9f 77 bd b4 08 2f 3e 46 59 34 be
       -0.13752015 -0.06045524 0.17093164 -0.1761218
0001d0 d8 a3 01 be 7f ff be 3d 3d 87 1b 3e 3c ed 60 3c
       -0.12660158 0.09326076 0.15188308 0.013728436
0001e0 5d a7 30 be 77 67 0f be bb ce 04 be 50 e9 24 bc
       -0.17251344 -0.14004312 -0.12969486 -0.010065392
0001f0 be 41 3c be 64 1a eb bc ca 33 5d be 8f 4a 22 3c
       -0.18384454 -0.028699107 -0.21601787 0.0099054715
000200 a8 83 74 3e 30 68 9a 3e 71 6e 4a be 65 97 14 be
       0.23878348 0.30157614 -0.19768693 -0.14510877
000210 a9 32 6e be 63 de 99 bd 31 11 06 bd f2 34 3a 3e
       -0.23261513 -0.0751312 -0.03273124 0.1818426
000220 7b 75 31 bd 4d 05 38 bd ff a7 e7 3d d6 32 70 3e
       -0.04332493 -0.04492693 0.113113396 0.23456892
000230 1f b0 d9 bd 96 21 ef 3c 79 38 85 be 19 d7 1a 3e
       -0.106292956 0.02919082 -0.26019648 0.15121116
000240 d8 70 1f 3e 04 53 a5 bd 71 8d c0 bd 07 93 48 be
       0.1557039 -0.080724746 -0.09401978 -0.19587336
000250 f6 26 63 3e c0 c9 24 3e 27 a8 51 3e 98 4d 23 bd
       0.22182831 0.16092587 0.20474301 -0.03986892
000260 47 a8 bc bd 06 21 04 be e8 27 9b 3d 93 cd 80 3e
       -0.09211784 -0.12903222 0.07575971 0.2515684
000270 bf 27 7e 3e 7d 02 e0 bd 6d ca 0d be 52 9d 7a be
       0.2481985 -0.109379746 -0.1384675 -0.24474075
000280 1e d0 6e 3e ed 87 4b 3c 7d 63 1b 3e 7a 8f 8e be
       0.23321578 0.012422544 0.1517467 -0.2784384
000290 b7 37 20 be 92 3c 8d 3e cc 19 1c 3e 44 ca af 3d
       -0.15646254 0.27585274 0.15244216 0.08583501
0002a0 af 76 5b be 45 86 81 be b6 6f 86 3e 9d dc 65 3e
       -0.21431993 -0.25297752 0.26257104 0.22447439
0002b0 d6 f3 5f be 8c 59 8b be dd 5b a1 bd 9c bc 91 3d
       -0.2187036 -0.27216756 -0.0787885 0.071160525
0002c0 f6 4d 84 3e 1c 56 13 be 0d d8 81 be a8 5e 9a 3d
       0.2584073 -0.14388317 -0.25360146 0.075375855
0002d0 bb ad 15 be f8 e9 b3 3e 34 ca 78 be ea dd 8a be
       -0.14617054 0.35139441 -0.24295884 -0.27122432
0002e0 fc b3 8e 3e d3 bf d1 3d 92 87 98 3d 42 0c 9d bd
       0.27871692 0.10241666 0.07447733 -0.076683536
0002f0 d2 91 85 be be 43 07 3e d7 90 09 be 16 0c b0 3e
       -0.26087815 0.13209435 -0.13434158 0.3438422
000300 75 d0 64 be 5f 63 62 be 97 98 9b 3e 24 f3 88 3d
       -0.22345145 -0.2210822 0.30389854 0.066870004
000310 b3 69 8b 3e 2a 3d 1b 3d 70 23 83 be 82 52 21 be
       0.2722908 0.037900127 -0.25612974 -0.1575413
000320 4d 77 9a 3d 53 e6 8e 3e eb a0 5e 3e 58 70 b2 bb
       0.07542286 0.27910098 0.21741073 -0.0054455213
000330 8e 8f 0a be 10 16 a3 3d 67 90 c6 3d d3 a7 79 3e
       -0.13531324 0.079631925 0.09695511 0.24380426
000340 23 52 8e bd ed 33 91 be a4 41 b2 3c 59 d1 84 3e
       -0.0694926 -0.2835993 0.021759816 0.2594097
000350 8d 64 b5 3d 1e c6 b3 bb 2c e5 25 be f9 1f 2c 3c
       0.08857069 -0.005486264 -0.16200703 0.01050567
000360 9c b5 24 3d 8e 69 31 3e ac 8d 4f 3d 29 ce a3 be
       0.04021226 0.17325422 0.05067222 -0.31993225
000370 22 3d bb 3d bc 24 20 3e 4d 34 73 3d 40 b0 40 be
       0.091425195 0.15639013 0.05937605 -0.18817234
000380 87 1b db bd 9c 9d a7 bd 3e 98 77 be 55 01 10 be
       -0.1069861 -0.081843585 -0.2417917 -0.14063008
000390 cc 91 52 3e 07 44 98 3e f0 1a 86 be 90 82 a9 be
       0.2056343 0.297394 -0.26192427 -0.33107424
0003a0 41 be e8 bc 75 d8 88 3e 45 38 65 3e bb b4 6d 3d
       -0.028411033 0.26727644 0.22384746 0.058033686
0003b0 d9 78 08 bd d1 97 9e be a3 2a 45 3e 24 9f 57 3e
       -0.033318374 -0.30975202 0.19254546 0.21056801
0003c0 30 f4 21 3d f0 24 59 ba 66 6f 8e be 74 99 0d 3e
       0.039539516 -0.0008283397 -0.27819365 0.13828069
0003d0 d3 6d 03 3e 5e e9 71 be 94 02 83 be dc b2 42 3e
       0.12834863 -0.23624179 -0.25587904 0.19013542
0003e0 ed 99 a9 3e 06 cc d6 bd
       0.3312525 -0.10488133

conv_layers.0.bias f4 [10]
000000 3f 28 89 bd b0 46 57 be e8 7e 95 3c 38 d8 c5 be
       -0.066971295 -0.21023059 0.01824899 -0.38641524
000010 af 3a ad 3e 5e 31 2a 3d 3a 33 a2 bd d1 ee e7 bc
       0.33833835 0.041550986 -0.07919927 -0.028312119
000020 c4 e0 b2 be 7c ee 96 bc
       -0.34937108 -0.018424265

conv_layers.4.weight f4 [20, 10, 5, 5]
000000 71 e4 84 bd 95 bb c5 bd 17 60 67 be fc 82 91 be
       -0.06488884 -0.09654919 -0.22595249 -0.28420246
000010 b3 99 ef bd fd 37 9a bc ed 43 56 be 90 56 47 be
       -0.11699238 -0.018825525 -0.20924349 -0.19466615
000020 20 35 65 be 0d 78 27 be 3c b7 14 be f4 b0 94 be
       -0.22383547 -0.1635439 -0.14523023 -0.29041255
000030 da d9 aa be e1 b5 47 be 60 b5 22 be 7f 8e b0 3c
       -0.33369333 -0.19502975 -0.15889502 0.021552322
000040 05 ab 85 bd 22 8e 70 be d7 80 d4 bd 1e 89 6e bd
       -0.0652676 -0.2349172 -0.10376137 -0.058236234
000050 da 6e c1 3c 06 71 62 bc 9e 9c 1b bd ec 05 26 bc
       0.023612428 -0.013820892 -0.03799116 -0.010133248
000060 08 41 9c bd 75 9f c0 bc 59 1a 80 3d 84 8b b3 3d
       -0.07629591 -0.023513535 0.062550254 0.08766845
000070 e1 9c 68 3d 7e 36 94 3d de 3d 02 3c 94 56 04 3e
       0.056790236 0.07236956 0.007949321 0.12923652
000080 97 31 8e 3d c1 a1 e9 3d a2 7b 21 3e 27 05 95 3c
       0.06943052 0.11407805 0.15769818 0.018190933
000090 7b 00 b8 3d a0 5c 77 3d 58 ef 78 3d 96 e7 aa 3d
       0.08984467 0.06039107 0.06077513 0.08344953
0000a0 2d 9e 8a bd 4f cb 24 3a e5 fa 64 3d 06 c7 90 3d
       -0.06768451 0.0006286399 0.055903334 0.07069211
0000b0 54 53 61 3d fe d5 e4 bd 07 4f 9c bd 33 d3 1c be
       0.05501111 -0.11173628 -0.07632261 -0.15314941
0000c0 32 51 1f be a8 a4 c5 3c 4e 7a 97 bc e9 dc 04 be
       -0.15558317 0.024126366 -0.018490937 -0.12974896
0000d0 58 6a 17 bd 50 8d 05 be 32 2f 3f be 89 f3 19 3e
       -0.03696665 -0.13042188 -0.18670347 0.15034308
0000e0 22 d8 a6 bd 4a 96 90 bd ae 2a 99 bd be ef 20 bd
       -0.08146693 -0.07059915 -0.07478844 -0.039291136
0000f0 e4 41 86 3d bb 90 58 bc 1e 0b 0d be c9 0e 1e be
       0.065555364 -0.0132181 -0.13773772 -0.15435328
000100 f6 76 fd bd e6 3e 7d 3d 39 46 02 3e e6 34 21 3e
       -0.123762056 0.061827563 0.127221 0.15742835
000110 d4 a1 2a 3d a7 15 cd 3d ad 6d 40 3d 9c d4 15 3e
       0.041658238 0.100138955 0.046979595 0.14631885
000120 9c e9 31 3e 54 84 1e 3e f0 a6 90 3d 3b e1 08 be
       0.17374271 0.15480167 0.07063091 -0.13367169
000130 ef 21 6c be f4 b9 24 be 93 8a 36 be b1 24 02 be
       -0.2305982 -0.1608656 -0.178263 -0.12709309
000140 e9 2b 82 bc 5e 77 10 bd d0 54 ac bc 60 c2 81 bd
       -0.015890079 -0.035270087 -0.021036536 -0.06335902
000150 4c d6 6e bd f2 ba 07 be dd c3 82 be 4a 51 98 be
       -0.05830984 -0.13254908 -0.25540057 -0.2974952
000160 30 09 7f be 87 dc 86 be 69 12 76 3d c0 d5 9a 3d
       -0.24905849 -0.26340124 0.06007615 0.07560301
000170 a5 ee ca ba 02 d1 c2 bd 58 30 2a bd 2a 0a 10 3e
       -0.0015482499 -0.09512521 -0.04155001 0.14066377
000180 71 a8 5b 3e ee 5c 02 3e 64 c1 3e 3e 8d 0c 9c 3d
       0.21450974 0.12730762 0.1862846 0.07619581
000190 a3 3e 8d bb ca ad f5 3c 50 2a 40 bc a6 b9 33 3d
       -0.0043104454 0.029990096 -0.011728838 0.04387822
0001a0 66 36 d4 3d 0a c7 b4 bc ca 13 8f 3d b8 54 0d 3e
       0.10361938 -0.022067565 0.06986196 0.13801849
0001b0 db 14 0e 3d b7 68 a9 3d 23 71 7d bc a3 8d f4 3c
       0.034687858 0.08271926 -0.015468868 0.029852694
0001c0 43 17 bb 3d 07 f7 a1 3d 99 f6 a1 3d 09 22 ba 3c
       0.09135296 0.07908445 0.07908363 0.022721307
0001d0 29 03 8a 3d de 33 7f bd be 50 1c 3d 12 2e d1 ba
       0.06738884 -0.062305324 0.03816294 -0.0015959165
0001e0 5a 1b dd bd 4b 1e 23 bc ac 27 07 bd a0 73 67 bd
       -0.107962325 -0.009955953 -0.03299682 -0.056506753
0001f0 44 80 50 bd be 99 1e be 2e 76 fe bd 7d 85 3a bd
       -0.050903574 -0.15488335 -0.12424885 -0.04553746
000200 1e ef f8 bc 69 c8 3e bd 3d 9f 92 be de ad b9 bd
       -0.030387457 -0.046577845 -0.28637114 -0.09066366
000210 b6 cf 46 bd 38 75 17 bd 4e b9 bd bc 1d 95 2c be
       -0.048537932 -0.036977023 -0.02315965 -0.16853757
000220 8a 69 24 be a0 80 e8 bd 29 d2 6e bc b7 7c 2e bd
       -0.16055885 -0.11352658 -0.014576473 -0.042599406
000230 59 51 91 3c 8e 7c 94 3d b1 64 9e 3d 42 fb 4d bd
       0.017738985 0.072503194 0.07734049 -0.050288446
000240 9a 15 ca 3c 23 a2 1b 3c ca 35 08 3e ff 38 2a 3d
       0.024668504 0.009499106 0.13301769 0.041558262
000250 0e f6 72 bd 6a 4a b1 bd a5 eb 0d 3d 37 d2 05 3d
       -0.059316687 -0.086567715 0.034648556 0.03267118
000260 e3 81 0f 3d 6e cd 5b bb 5d b3 0f be 1c b1 e7 3c
       0.03503598 -0.0033539194 -0.14033265 0.028282695
000270 aa 72 26 3b a7 5d c9 bd 68 53 d7 bb 0f 61 7a bd
       0.0025397935 -0.09832316 -0.006571222 -0.06112772
000280 90 27 05 3c ac 71 4d 3d 43 0e a5 bc f9 25 11 bd
       0.008127108 0.050157234 -0.020148402 -0.035436604
000290 69 21 1b 3d 72 c5 46 3d 22 0a a5 3d 9d a8 2e 3e
       0.03787366 0.048528142 0.08058573 0.17056508
0002a0 06 f7 39 3e 05 1e 99 3d 88 6b db bd 13 8c 1f bd
       0.18160638 0.07476429 -0.10713869 -0.038951945
0002b0 7f d2 e1 3d 5a 3a 5b 3e 89 bb e6 3d ae 43 90 ba
       0.11026477 0.21408978 0.11266238 -0.0011006498
0002c0 9c 4c 25 bd ff 14 45 bd ca e8 92 bd 37 a0 e8 bd
       -0.040356264 -0.048115727 -0.07173307 -0.113586836
0002d0 48 41 9f 3c e0 c5 db bc 2d d0 27 be 1e 84 de bd
       0.019440308 -0.026827753 -0.16388007 -0.10865043
0002e0 a1 e8 b4 bd 90 fc 62 bd 73 73 2c bb 1c 0d 1c bd
       -0.08833433 -0.055416644 -0.002631393 -0.03809844
0002f0 6d 3a b8 bd 9d a3 d0 bd 53 e2 16 3d e2 6e d7 3c
       -0.08995519 -0.10187457 0.036836933 0.02629799
000300 b4 7a f6 3d 43 b8 a8 3c 71 8a 6c 3b b0 8e 10 be
       0.120351225 0.020595675 0.003609326 -0.14116931
000310 3d 1d 3c 3d ce 41 c7 3c 72 3e 83 3d 6c 06 1e 3d
       0.04592632 0.02432337 0.06408395 0.038580343
000320 a8 d0 17 3b fe 58 80 bd b9 00 26 be 02 ea ba be
       0.002316514 -0.06266974 -0.16211213 -0.3650666
000330 69 86 f5 bd 3e 73 b6 bd 78 3d fd bd e8 a0 53 be
       -0.11988527 -0.089086995 -0.1236524 -0.2066685
000340 a1 7a 28 be 75 1c d1 bd 46 65 01 be bf 0e 5d be
       -0.16453029 -0.10210506 -0.12636289 -0.21587656
000350 5b f9 c9 be 67 f9 b1 be 55 db 89 be 02 2c 47 3d
       -0.39448056 -0.3476059 -0.2692515 0.048625953
000360 34 0d 2d 39 3b 06 5c bd 6c a0 3b be e0 6f 89 bd
       0.00016503484 -0.05371688 -0.18322915 -0.067107916
000370 81 bf 1b 3c f9 f5 9a 3d 12 a9 bd 3d a6 11 23 3e
       0.009506107 0.07566447 0.09260763 0.15924701
000380 52 4c 05 3a 27 ef 99 be cd ee de bd cc 05 f0 bd
       0.000508492 -0.3006527 -0.108853914 -0.11719856
000390 27 b1 a1 bd 81 31 09 3c dc 0a ca be 90 1b 28 be
       -0.07895117 0.008373619 -0.3946141 -0.16416764
0003a0 95 3e c8 bd ed 9f 44 b9 0c ed ba bd 4d 0d 43 be
       -0.097775616 -0.00018751594 -0.09127244 -0.19048043
0003b0 b0 66 17 be d1 87 91 bd 05 ef 35 bc 5a 2e 14 bd
       -0.14785266 -0.07105983 -0.01110435 -0.036177017
0003c0 e5 79 54 3c 58 a6 03 3b 44 d2 27 3d ce 10 4d bc
       0.012968515 0.0020088162 0.04097201 -0.012516214
0003d0 c3 e9 b3 bc cb 01 96 3d ef 9d 0c 3e 00 e7 1c 3e
       -0.021962052 0.07324561 0.13732122 0.15322495
0003e0 07 c6 32 bd 36 ee eb bd 50 85 f6 bc 3c 17 74 be
       -0.043645885 -0.115200445 -0.030092865 -0.23836988
0003f0 55 b0 8b be a6 2d 4c be 0d 52 8f be 4e ce ba bc
       -0.27282968 -0.19939288 -0.27992287 -0.022803452

conv_layers.4.bias f4 [20]
000000 53 c1 82 3d 35 88 74 3e f2 41 16 3e ef a7 20 bb
       0.0638453 0.23880084 0.14673594 -0.0024514159
000010 3c 0c f8 bd b8 fc d8 bd 33 85 90 be c7 08 38 3c
       -0.121117085 -0.10595077 -0.28226623 0.011232561
000020 51 75 95 bd 7f ff 00 3f ae db b9 bd c0 c2 4d be
       -0.07297767 0.50389856 -0.09075104 -0.20093822
000030 f6 96 6e bd c2 da b0 bd e2 4e c7 3e c5 28 1e 3e
       -0.058249436 -0.08635475 0.3892737 0.1544524
000040 02 a1 0c be f7 d0 74 be 70 86 a0 bd 1c c3 53 3e
       -0.13733295 -0.23907839 -0.07838142 0.20679897

fc_layers.0.weight f4 [100, 500]
000000 89 eb 8f bc ec 7c db bc 38 5f 0e be fb 87 d5 ba
       -0.017568367 -0.026792966 -0.1390351 -0.0016291136
000010 0d 32 df bc 3e 42 28 3e 9f 8d 29 bd 79 c9 90 be
       -0.027245546 0.1643152 -0.041394826 -0.2827871
000020 d6 54 58 3d da 65 f5 3d ef 0d 76 bc 0f 0f 9b bd
       0.05281528 0.11982317 -0.01501797 -0.075712316
000030 43 57 e7 bd e4 83 3a bd 30 c5 43 3c 1b 92 a8 bc
       -0.11295941 -0.045535937 0.011948869 -0.020577481
000040 87 a2 0b bd 76 7c a7 bd 7f cc aa 3d 4a fc 33 3d
       -0.034090545 -0.08178036 0.08339786 0.043941773
000050 e9 8d 66 3b 08 81 08 3c fe ba b7 bc 5f c1 c5 3c
       0.00351798 0.008331545 -0.022428032 0.024140058
000060 34 6d 08 3d e3 d0 37 3b 8e 31 0a 3e 40 ac 5e 3e
       0.03330727 0.002804809 0.13495466 0.21745396
000070 46 0d a4 3c 37 ec 85 3d 8d 5a 46 bc df c3 07 3e
       0.02002586 0.06539195 -0.01210655 0.13258313
000080 7f 0a 41 3e 1c b5 99 bd 1d b2 73 3e 52 a7 fd bc
       0.1885166 -0.07505247 0.23798414 -0.030963574
000090 92 da 18 3e 67 14 c6 3d 61 9c 21 be 9d 8c 48 3d
       0.14927128 0.0967186 -0.1578231 0.048962224
0000a0 36 07 dc 3d cc e6 29 bd 79 c1 27 3e 45 12 34 be
       0.10743563 -0.04147987 0.16382398 -0.17585094
0000b0 46 0c 13 be e5 d6 1f 3e 3b fd 50 be 7f 23 9e 3d
       -0.1436015 0.1560932 -0.204091 0.07721614
0000c0 04 5c 3d 3e 38 36 32 be 55 b0 a7 3d 74 78 ef 3c
       0.18492132 -0.17403495 0.081879295 0.029232241
0000d0 5d bc b5 be 3f 4d e2 bd ae bd 31 3b 89 6b 50 3d
       -0.35495272 -0.1104989 0.0027121115 0.050883804
0000e0 24 f7 2a bc 20 11 23 be 9d 67 4d bd 4b c1 5c 3d
       -0.0104348995 -0.15924501 -0.05014764 0.053895276
0000f0 4f d0 a6 bc 97 87 9b 3d bb e4 98 bd 36 9c 1c bd
       -0.020363001 0.07594221 -0.07465502 -0.03823491
000100 90 28 03 3d d9 49 c9 bc d4 2c 78 3d 3b 64 c6 bd
       0.032021105 -0.024571346 0.060589626 -0.09687086
000110 21 21 8e 3c 62 33 25 bd 18 a2 ce bb 90 fe 2d bc
       0.017349781 -0.040332206 -0.006305944 -0.010619774
000120 78 8d 70 3d 96 71 94 ba 41 c5 8f ba f4 12 f1 bb
       0.058728665 -0.0011325355 -0.001096882 -0.0073569957
000130 f2 73 56 bd 6a 4b dc 3b 23 b9 ec bc 48 de d1 bc
       -0.052356668 0.0067228572 -0.028896874 -0.025618687
000140 d1 94 d4 3c 96 3d 65 3c 88 51 be bd 77 03 96 bd
       0.025949867 0.013991734 -0.092928946 -0.073248796
000150 8a 64 13 bb 3c 06 f1 bd 88 64 c3 3d 9e ac f7 3a
       -0.0022490346 -0.11768767 0.09540659 0.0018896048
000160 00 5c cb bc 18 98 6d bd c1 b8 18 be e1 0d e9 bc
       -0.024824142 -0.058006376 -0.14914228 -0.028449
000170 2a 13 6c bc fa 40 9e 3d 13 f7 c2 bd 7e 1d f3 3c
       -0.014408866 0.07727237 -0.09519782 0.029677149
000180 38 ce 62 3c 50 e9 c7 bd 39 c2 b3 bd 69 3b d7 bd
       0.013843112 -0.09761298 -0.087772794 -0.105093785
000190 0b 80 01 3e f9 f9 49 3e ec 90 52 3e 5f e7 1d 3e
       0.12646501 0.19724263 0.20563096 0.15420292
0001a0 8f 9f 6c 3e 0c 7a 93 3d 27 4f 58 3d 9f bc 96 3d
       0.23107742 0.07201013 0.05280986 0.07360195
0001b0 e2 7e 58 3d 86 9f f9 3d d6 0e 57 3d c8 4a c5 bc
       0.05285538 0.1218863 0.052504383 -0.02408351
0001c0 42 b6 a3 3c f1 7c 38 3d 38 d8 ad 3d e1 82 8e 3d
       0.019984368 0.04504103 0.08488506 0.06958557
0001d0 49 18 f1 3c bc 32 1d 3e ed 12 ab 3d 9c 54 04 3d
       0.029430525 0.15351385 0.08353219 0.032307252
0001e0 ec 17 25 be 3a 87 1c be 9a eb 1a be d5 e7 d9 bd
       -0.16122407 -0.1528596 -0.15128937 -0.106399216
0001f0 50 25 2d be e9 91 49 be 56 ad c1 3c d4 66 81 bd
       -0.16908765 -0.19684567 0.023642223 -0.06318441
000200 2f 86 bf bd 88 70 d7 bd 83 a4 f6 ba a9 e1 07 3d
       -0.09351765 -0.105195105 -0.0018817339 0.03317419
000210 86 8e 29 3d 4e c5 40 3d 59 4f c0 bc 77 33 89 bb
       0.041395687 0.047063164 -0.023475336 -0.0041870433
000220 c8 ce 6c bd 5d 45 88 3d 4f 27 82 bd 58 08 82 3c
       -0.05781439 0.06653855 -0.06355154 0.01587312
000230 e7 ec a2 3d 56 8b 3b 3d 70 b4 03 3d b1 6f 84 3d
       0.07955342 0.045787178 0.0321545 0.06466616
000240 7f e2 7e 3c 65 33 8d bd 34 83 6f be 64 b7 aa bd
       0.015556931 -0.06894568 -0.23389894 -0.0833576
000250 74 8c 1d be a2 13 8e bc cf 86 ec bb dc 23 07 be
       -0.1538561 -0.017343346 -0.007218219 -0.13197273
000260 55 da 49 be 7a 78 12 be 7a 57 83 3c b4 d4 58 bd
       -0.19712193 -0.1430377 0.016032923 -0.052937225
000270 1a 1c de bc a1 6c ac bc 28 0e bf 3d 7e 7e 4b 3d
       -0.02711301 -0.021047892 0.09328872 0.04968118
000280 f5 a3 31 3d 26 06 d4 3b 1c 2d d0 3c 42 fc cc 3c
       0.043369252 0.0064704595 0.025412135 0.02502263
000290 f8 02 7b 3c ae da f9 3d 4d 48 3a 3e 98 65 25 3e
       0.015320532 0.12199913 0.18191643 0.16152036
0002a0 41 05 12 3e 6f ba c0 3d b3 f3 4a bd 4c a8 0c be
       0.14259817 0.094105594 -0.049548816 -0.13736075
0002b0 b3 6c 02 be 94 9c d7 bd cf ba b1 bd 12 05 5e be
       -0.12736778 -0.10527912 -0.08678209 -0.21681622
0002c0 59 bb 36 be 03 31 63 be 20 f9 ff bd 74 a5 6d be
       -0.17844905 -0.22186665 -0.12498689 -0.23207647
0002d0 04 4c a2 bd c2 3b 45 bd 11 2c cd bd 60 72 c9 3c
       -0.07924655 -0.048152693 -0.100181706 0.024590671
0002e0 06 ce 85 bd 80 fb 86 bb 9a 65 9a 3d 91 56 65 3c
       -0.065334365 -0.0041193366 0.0753891 0.01399769
0002f0 4c 9b 8a 3d d2 31 ad 3c 03 4c 39 3c 71 14 1b 3e
       0.06767902 0.02114192 0.0113096265 0.15144517
000300 24 a8 c8 3d 99 3a 0a 3e 34 f4 53 3d 73 ea e6 3d
       0.09797695 0.13498916 0.051746562 0.112751864
000310 a5 5a cf bd 71 c0 59 bd 62 a3 bc bd 86 f9 d5 3b
       -0.10124711 -0.053162042 -0.0921085 0.0065299897
000320 53 21 5d bd c3 75 ca 3c 4b 9a 99 3b b2 0a a8 3c
       -0.05398686 0.024714356 0.0046875826 0.020512912
000330 13 a3 42 3b 12 f1 2f 3b ae df bb 3c fc 61 f2 ba
       0.002969925 0.002684657 0.022933807 -0.0018492336
000340 05 13 3a ba ab 04 e0 bc a3 75 85 bc 9f 55 eb 3a
       -0.0007098171 -0.027345976 -0.016291445 0.0017954594
000350 31 5e 0a 3b fa 99 22 3b 6f 33 c7 bb f4 50 14 3b
       0.0021113271 0.0024811015 -0.0060791294 0.002263126
000360 3c 99 7b ba 9e b2 e3 ba a5 1a 08 ba c5 5b a0 bb
       -0.0009597724 -0.0017371958 -0.00051919586 -0.0048937523
000370 7f 0f 35 bc 2b 62 78 ba ee 98 2b 3b 4d a9 86 3b
       -0.011051058 -0.00094750774 0.0026183682 0.0041095377
000380 b6 d6 4b bb 76 13 0c be 48 b2 29 3d 2d 84 1f 3d
       -0.003110332 -0.13679299 0.041429788 0.038944412
000390 43 f2 f6 bd 6c 54 65 bd 40 4e d9 bd 9a f9 20 bd
       -0.120579265 -0.055988714 -0.10610628 -0.03930054
0003a0 bc 6a 0b bc f3 33 59 bd 47 32 a3 ba 6f 87 18 3e
       -0.008509334 -0.05302806 -0.0012450897 0.14895414
0003b0 64 32 c4 3b e6 12 61 38 0e 12 a9 3d d2 68 62 3d
       0.0059874523 5.366178e-05 0.08255397 0.055275746
0003c0 88 6f 22 be 1c fc 54 bd 83 12 51 bc 97 a5 1b bd
       -0.15862858 -0.051998243 -0.012760761 -0.037999716
0003d0 29 0b df 3d f1 c3 33 bd ae 39 cd 3c ab cc 30 be
       0.108908005 -0.043888036 0.025051918 -0.17265575
0003e0 58 d4 f9 bc 70 c8 1d bd f3 a4 e8 3c 9d 45 8f 3d
       -0.030496761 -0.03852123 0.028398966 0.069956996
0003f0 20 49 0f be 8c 52 18 bd dc 93 22 3d 90 1d 1b 3d
       -0.13992739 -0.037188098 0.03969179 0.03786999

fc_layers.0.bias f4 [100]
000000 f2 44 bd bd 6c 1e 33 3e bc 7d 03 bd 54 fe 65 3e
       -0.09241666 0.17492074 -0.03210233 0.224603
000010 64 43 db bc 35 be b4 3b 05 ff ce 3e be e3 a4 be
       -0.026765533 0.0055158385 0.4042894 -0.32205003
000020 95 cf 93 bd 95 bb b8 bb 0b 67 c0 3c ae 2e 7e 3e
       -0.072173275 -0.005637596 0.023486635 0.24822494
000030 88 91 7f be f4 e8 bc bb 30 43 cd bd 50 7d 96 bc
       -0.2495786 -0.005765075 -0.100225806 -0.0183703
000040 f3 ad 05 bc 76 5f a9 3e ed 66 4b bb f9 06 37 bd
       -0.0081591485 0.33080643 -0.003103669 -0.044684384
000050 b9 c9 02 3e c4 e9 27 bd 0e 87 7a bc c3 02 d6 bc
       0.12772264 -0.04099442 -0.015290989 -0.026124364
000060 63 60 87 3c d3 7a 59 be 18 e4 95 3e df db f4 bc
       0.016525453 -0.2123826 0.29275584 -0.029889999
000070 4e c1 4c 3c 69 7f 31 bc 7d 95 b3 bb 92 3d 32 be
       0.012497259 -0.0108336 -0.005480467 -0.174063
000080 81 ac 26 3e 07 a5 21 bd 2e 7d 50 bd ae ef 91 3c
       0.16276743 -0.039464023 -0.05090063 0.017814483
000090 93 7b 61 b9 a3 8d 11 bc 78 70 3f bd 92 0f c5 3d
       -0.00021503707 -0.0088838665 -0.046738118 0.096221104
0000a0 b4 ca 0e 3e 20 17 b4 3b ed e1 81 3d 12 3f 1e bb
       0.13944513 0.005495921 0.0634192 -0.002414648
0000b0 79 9f 3e 3c 27 97 77 bd 70 94 03 b8 21 e9 35 bc
       0.011634701 -0.060446884 -3.1371077e-05 -0.011102946
0000c0 d2 f2 d5 bc 63 8c 78 bc 3c fd 74 bd 82 11 95 bd
       -0.026116762 -0.01517019 -0.059811816 -0.0727873
0000d0 17 49 9e bd c5 53 44 3e 7c e5 e8 ba e8 8b e3 bc
       -0.077287845 0.1917258 -0.0017768587 -0.027776673
0000e0 75 8f 29 3d ec 4a 4b 3e 0b 7a a6 bd ea 8c 09 3e
       0.041396577 0.19852799 -0.081287466 0.1343266
0000f0 ba 12 25 bc c4 bc 48 bd 5b f8 ea bd 05 fa 3e ba
       -0.010075266 -0.049008146 -0.11473151 -0.00072851806
000100 92 f4 0d be 81 40 be bc 23 e2 ba bd 68 d9 00 3e
       -0.13862827 -0.023224117 -0.091251634 0.12582934
000110 7c 67 ee 3d 75 5b 2b bc 05 69 d7 3d 4c eb 5b bd
       0.11640832 -0.010458817 0.10518078 -0.053691193
000120 87 bb 27 3d 1a 20 8a bd 37 8d 13 3e 9b 99 5c 3e
       0.040950324 -0.06744404 0.14409338 0.21542971
000130 89 c5 68 bc a5 ca 99 bb ff ef 8f 3e 3e 5d 5f 3a
       -0.014207252 -0.0046933466 0.2811279 0.0008520669
000140 09 24 73 3d bb 6e 30 3e e1 d6 3c 3e af 2e 11 bd
       0.059360538 0.1722974 0.18441345 -0.03544491
000150 27 be b6 b9 4c d8 ee bb 93 91 80 bc 5d 57 56 bd
       -0.0003485542 -0.007288968 -0.015694415 -0.05232941
000160 94 09 b1 3e a4 42 fc 3d 4e f0 42 bd 4f be c7 3d
       0.3457762 0.12317398 -0.047592454 0.09753095
000170 49 9d 2c be 36 a1 82 bd 47 96 47 bc b9 b3 ef 3c
       -0.16856875 -0.06378405 -0.012181825 0.029260503
000180 bc ae 2b bd 1f f8 82 bc e0 8e 61 3b 4c 73 23 bd
       -0.041914687 -0.015987454 0.0034417436 -0.039904878

fc_layers.3.weight f4 [15, 100]
000000 72 cc c7 3c d1 16 bd 3d 4f 2a 16 3d 9f 79 8e be
       0.02438948 0.092328675 0.036661442 -0.27827165
000010 48 5c 43 bd 29 e2 85 be 30 cd 16 be 40 3b 0e 3c
       -0.047695428 -0.2614911 -0.1472671 0.0086811185
000020 08 1b 98 3d 6b c7 82 bb ea 1c 09 3c 13 91 35 be
       0.07427031 -0.0039910576 0.00836871 -0.17731123
000030 67 62 10 be 02 2d 8d bd 4c e6 17 be 93 07 05 38
       -0.14100038 -0.0689335 -0.14833945 3.1716725e-05
000040 8b d4 7c bd d6 d6 00 3d 52 02 a6 3c cc 5b 03 3e
       -0.061726134 0.031454884 0.020264778 0.12827986
000050 7a 8c 77 be 99 33 d6 3d 83 0a b2 3b ca 0c 0d bd
       -0.24174681 0.1045906 0.005433382 -0.034436025
000060 3f 32 0e be f8 13 f0 3b 92 6e 96 bd a6 1d 7f 3c
       -0.13886355 0.007326599 -0.07345308 0.015571034
000070 30 04 82 be cf 1f c7 be 85 e4 e9 3c 08 16 22 3d
       -0.2539382 -0.38891456 0.02855135 0.039571792
000080 63 83 a8 bd d4 6b 6f 3e 92 91 61 bc 1d 66 f5 3a
       -0.08228185 0.23380977 -0.013767617 0.0018722449
000090 14 20 9b 39 a1 b8 8a bc 6c 80 7c 3d 7d 46 8d 3d
       0.00029587804 -0.016933741 0.06164591 0.0689821
0000a0 ac 77 a4 be 5a 98 cd ba b0 2c 27 3d 5c f7 88 3c
       -0.32122552 -0.0015685663 0.0408141 0.016719513
0000b0 82 19 c4 bc 16 0a fd bd 00 8a 02 80 1f d2 75 3c
       -0.023937944 -0.12355439 -2.33176e-40 0.01500371
0000c0 ec 00 0a be ec ee 3d 3b 97 47 a2 3d dc 74 25 bd
       -0.13476914 0.002898152 0.07923811 -0.04039465
0000d0 fd 9d 07 3d 17 64 d4 bd 95 08 8e 3b d4 71 67 ba
       0.033109654 -0.10370653 0.004334519 -0.00088289124
0000e0 4a cc 02 3d be 5d e3 3d 02 a4 94 3d eb fe 4b bd
       0.031933106 0.11101864 0.072578445 -0.049803656
0000f0 09 63 24 3c 1f 5f ad 3c 92 25 27 3d c1 bc a2 36
       0.010033377 0.021163521 0.040807314 4.84995e-06
000100 9e 76 0e 3c 9e 30 5a be 8a 6c 0d be 46 0d c6 bd
       0.008695273 -0.21307608 -0.13810936 -0.096705005
000110 5c 06 0c 3e 50 22 c7 ab 6a c6 69 be e9 9b 5b bc
       0.13674301 -1.4149324e-12 -0.22829595 -0.013403871
000120 5f b0 1b be 9d cc e3 bc d8 cb 63 be 44 bf ef bd
       -0.15203999 -0.027807528 -0.22245729 -0.11706403
000130 0f 36 9d bc 17 14 37 3d 2c 53 68 3d 5f 2d 3e 2a
       -0.019190816 0.044696894 0.056719944 1.6891131e-13
000140 41 d5 94 be 7a 80 bf be 97 93 a0 bd a9 bd f9 bd
       -0.2906895 -0.37402707 -0.078406505 -0.12194378
000150 50 7a 03 00 5e 80 51 3d f7 3d 29 3e a4 83 d4 ba
       3.19384e-40 0.05114781 0.16527544 -0.0016213548
000160 f0 0e 00 be 33 2d 04 3c 89 1b b2 bc be 5e a0 39
       -0.12505698 0.008067417 -0.021741645 0.00030588167
000170 78 a1 8f bd b7 ec 54 3d fb e2 d5 ba 25 80 f4 bd
       -0.070132196 0.05198356 -0.0016318256 -0.11938504
000180 14 1a 06 3e 6f 75 19 3e a0 b6 4a bd 7a ce 5f bb
       0.13095886 0.14986204 -0.04949057 -0.003415017
000190 e2 69 c1 bd 42 77 24 3c 9b f1 04 3d 75 ac 2b be
       -0.09444024 0.010038199 0.032456975 -0.16765006
0001a0 51 17 79 bd 48 bc 22 be 4c 92 70 3d 9a 0d 66 be
       -0.060813252 -0.15892136 0.05873327 -0.22466126
0001b0 c1 78 69 3e e6 b9 93 af a4 9e 67 3c 4e 7b b1 3c
       0.2279997 -2.6871233e-10 0.014136944 0.021665242
0001c0 25 ed cf bd 55 29 e3 3b 4c fb 8b bd 93 98 35 bc
       -0.101526536 0.0069324174 -0.068350405 -0.01108374
0001d0 5d 92 1f bd 4d a5 d5 3d 65 5d 4f 3c f2 27 08 ba
       -0.038957942 0.10431919 0.012656544 -0.00051939406
0001e0 f8 45 61 3d 3b ef c3 3c b0 05 b0 38 d7 0c 9b 3d
       0.054998368 0.023917785 8.3933934e-05 0.075708084
0001f0 b0 53 88 3e 8a 11 3d be 50 0c c0 bc 3f 72 20 bd
       0.26626348 -0.18463722 -0.023443371 -0.039171454
000200 c4 45 b9 3d 6a fc 99 3d 22 ab 99 3d e5 f4 1e 3e
       0.0904651 0.07518847 0.07503344 0.15523107
000210 51 a0 c3 3d b0 d2 81 bd f7 9d bf 3a fd 50 64 b8
       0.09552062 -0.063390136 0.0014619221 -5.4434862e-05
000220 0c 1f fc ba 5f e1 7e bc d0 64 d5 be de 08 d7 3c
       -0.0019235327 -0.015556662 -0.41678476 0.026249345
000230 ee f2 48 3c a3 8d 0a bc 83 3e e5 3d c6 f8 b1 b9
       0.01226495 -0.00845662 0.11193564 -0.00033945421
000240 a9 b0 31 bd 8b 26 67 bd eb 5a 00 00 cc fc b3 3c
       -0.043381367 -0.05643324 3.2615e-41 0.021971129
000250 5c 34 69 be fa 3e 8f b9 e8 7e 89 be e4 e4 0c 3d
       -0.2277388 -0.00027322007 -0.26854634 0.034397975
000260 5a 8c 17 bd b1 4d 4b be bf 4c 2a bb 7c c6 d0 bb
       -0.036999084 -0.19853856 -0.0025985686 -0.0063713174
000270 c3 a4 0d be 4e 5f 7a 3d 94 5e b5 3d 5f f2 f8 3b
       -0.13832383 0.061126046 0.0885593 0.0075972523
000280 93 23 10 b5 96 b0 39 bd 61 e7 17 3d a4 b2 b1 bb
       -5.369595e-07 -0.04533442 0.037085894 -0.005422907
000290 24 d0 fc bd eb bb 44 be c3 a7 d9 bd 45 80 18 be
       -0.12344387 -0.1921231 -0.10627701 -0.14892681
0002a0 76 77 f5 bc 2c 49 91 b5 d4 e7 a5 bd b9 f3 94 3c
       -0.02996419 -1.0824638e-06 -0.08100858 0.018182622
0002b0 74 9f 43 3e 29 de 1e bc fe 30 aa 3d 22 a6 37 3e
       0.19103795 -0.009696522 0.08310126 0.17934468
0002c0 52 3c 95 bd be 18 8a 3c 8f 86 da 3c 08 44 de b3
       -0.07286896 0.016857501 0.02667549 -1.03500554e-07
0002d0 09 de 5a bd 7a f5 a9 bd 69 f4 bf 3b be 7f fd bd
       -0.053434405 -0.08298774 0.0058579934 -0.123778805
0002e0 49 b4 a4 38 e3 2b c8 bc 14 3d 7b 3d 69 ac ef 3b
       7.85371e-05 -0.02443499 0.061337546 0.007314254
0002f0 d7 78 0e 3e 1a bb 05 3e 0f 52 85 bc 6f b6 da 3d
       0.13913284 0.13059655 -0.01627448 0.10679328
000300 a6 95 44 be fa 3b e9 be 4e 31 11 bc bc 37 b0 bc
       -0.19197711 -0.4555357 -0.008861853 -0.021510951
000310 40 ca 6c bd 74 93 89 3b 1e 91 14 bd 37 9e b3 3c
       -0.057810068 0.004198486 -0.036271207 0.021926029
000320 c5 81 95 bd 96 9c aa bd 1c 01 15 bd c0 40 c4 3d
       -0.07300142 -0.08330648 -0.03637801 0.095826626
000330 8a 4b 4c 3d ef fe ad bd 82 6c 2a 3e 49 5d 33 be
       0.049876727 -0.0849589 0.16642955 -0.17516054
000340 0f f7 5f bd 61 e8 c0 bc 04 7c 62 bd 1b 9d 30 3d
       -0.054678973 -0.023548307 -0.05529405 0.043118577
000350 68 f5 c6 bd 0c 41 5b bd ea 20 0a bd 65 d9 24 b7
       -0.09714776 -0.05352883 -0.033722796 -9.825778e-06
000360 6e 00 33 bd b9 9d 8b bc e8 4f 24 ae 53 af 6d be
       -0.04370158 -0.017042981 -3.7360254e-11 -0.23211412
000370 29 ab 6d bd ea ee 82 3c 14 d9 89 ba 29 32 1b 3d
       -0.05802456 0.015983064 -0.0010516965 0.037889633
000380 bd 40 6d bc 61 60 b8 bc 41 6f 64 3e 85 e4 8a 3c
       -0.014480767 -0.022506895 0.22308065 0.01695467
000390 29 7e 68 3d 12 f9 b1 be 9f aa df bd 01 e5 e8 bd
       0.05676094 -0.34760338 -0.10921215 -0.11371804
0003a0 7f e9 cf 3c 8a 48 39 bb dc d6 cf 3c fe 3e 7f 3a
       0.025379894 -0.0028271996 0.025371008 0.00097368646
0003b0 30 fd 36 3b c9 e0 e9 bc f8 15 4e bc 0e 3c 22 3e
       0.0027921908 -0.028549569 -0.01257848 0.15843222
0003c0 69 fb 95 bc f1 a7 a4 b8 bd 41 de bc b5 2a 7b b8
       -0.018308358 -7.851411e-05 -0.027130956 -5.9882837e-05
0003d0 26 70 0b bd 2e c0 8e bd 14 d8 04 00 fe fc ee bb
       -0.0340425 -0.06970249 4.44856e-40 -0.0072933426
0003e0 21 9f 82 3c 14 1e ca 3c 25 d5 9a 3d bd 71 81 3d
       0.01594502 0.024672545 0.07560185 0.06320522
0003f0 8c bd c0 3c e0 17 cf 3d 0e aa 00 bd be 71 4f bc
       0.023527883 0.10111976 -0.031412177 -0.012661396

fc_layers.3.bias f4 [15]
000000 bb 1e 4c 3e 3a 73 99 3c b8 56 63 3e a3 97 90 3e
       0.19933598 0.018731702 0.2220105 0.2824069
000010 c9 91 d1 be 08 b1 2f bd 86 9c 65 3e 0f e6 c5 3c
       -0.40931538 -0.04289344 0.2242299 0.024157552
000020 f2 ed 21 bd d6 53 62 bd d9 dd 7b 3d 02 3d 2c be
       -0.039533563 -0.055255733 0.061490867 -0.16820148
000030 71 4a 29 3c 6f 25 65 be b8 be 3f bd
       0.01033269 -0.22377561 -0.046812743

exp_avg f4 [10, 1, 5, 5]
000000 83 ff b8 3e db 4d 2b bf 2f f3 3d bf b1 37 af bd
       0.3613244 -0.66915673 -0.74199194 -0.08555544
000010 e5 bd f4 3e 4f 85 59 3f b1 8f ed be e4 d5 e8 be
       0.47801128 0.8496904 -0.4639869 -0.45475686
000020 ca c3 8e 3e e9 6c 3e 3f 33 6e 04 40 42 d1 c8 3f
       0.2788375 0.74384934 2.069226 1.568886
000030 d6 6b bd 3f f5 da a6 3f a4 2f ab 3f be 70 f8 3f
       1.4798534 1.303557 1.3373914 1.9409406
000040 5c f7 18 40 e5 1d 09 40 93 b2 a9 3f c2 23 9a 3f
       2.3900976 2.1424496 1.3257622 1.2042162
000050 4f 5f a0 3f 7b 8e cf 3f 4c d8 ae 3f 75 7c 8a 3f
       1.2529086 1.6215357 1.3659759 1.0819231
000060 96 a2 72 3f 08 a8 f6 bf 9c 9f 07 c0 d1 98 10 c0
       0.94779336 -1.9270029 -2.1191168 -2.2593272
000070 a5 ba 16 c0 6e c4 13 c0 b5 e7 05 c0 e9 ea 0c c0
       -2.3551419 -2.308864 -2.0922673 -2.2018378
000080 52 bd 14 c0 87 b7 12 c0 a0 ee 13 c0 f9 74 15 c0
       -2.3240552 -2.2924516 -2.3114395 -2.3352644
000090 aa ef 0f c0 03 1e 15 c0 9d e5 1c c0 03 95 1b c0
       -2.249003 -2.3299568 -2.4515145 -2.43097
0000a0 c5 5c 14 c0 b2 ae 13 c0 81 84 19 c0 d3 67 20 c0
       -2.3181622 -2.3075376 -2.3987124 -2.506337
0000b0 cc df 14 c0 05 4d 10 c0 ca 80 16 c0 a4 1e 18 c0
       -2.3261595 -2.254701 -2.3516107 -2.3768702
0000c0 3f 7a 19 c0 5c e0 15 c0 83 c3 48 bd 51 76 35 be
       -2.3980863 -2.3418188 -0.04901458 -0.17720915
0000d0 95 a9 28 be 0d 78 e7 ba 7e 9b 9b 3e 7e ba 26 be
       -0.1647094 -0.0017659679 0.3039207 -0.16282079
0000e0 f3 9c 5b be e9 92 79 be 40 98 37 be 44 2d 08 3e
       -0.2144659 -0.24372448 -0.17929173 0.13298517
0000f0 bc 12 4d bd 14 20 5b bd bd 90 d7 bd 0f e8 aa bd
       -0.050066695 -0.05349739 -0.105256535 -0.08345043
000100 29 49 c7 3d d2 b3 57 3e a8 f4 5e 3e 76 5d 53 3e
       0.09730751 0.2106469 0.21773016 0.20641121
000110 5b 63 96 3e 88 fa f0 3e a2 b5 6c 3e 0f 8b 33 3e
       0.29372677 0.4706614 0.23116162 0.17533515
000120 aa ac 24 3e ad c6 7e 3e 14 e3 dd 3e 94 22 39 be
       0.16081491 0.24880476 0.4333731 -0.18079597
000130 1d 86 e0 bd ab 84 99 be e8 a7 ae be 72 a2 33 be
       -0.1096308 -0.2998403 -0.34112477 -0.17542437
000140 6d d0 95 be 88 59 85 be c8 fe f8 be 51 02 eb be
       -0.2926058 -0.2604487 -0.48631883 -0.45900205
000150 f5 ac 9c be 7b 6b e7 be 23 d4 e9 be a5 2a 1c bf
       -0.30600706 -0.4519919 -0.4566966 -0.6100257
000160 64 ae 1a bf 95 ed e5 be bb a9 c1 be e3 0e bb be
       -0.6042235 -0.44907823 -0.37824807 -0.36534795
000170 a1 20 08 bf 5f d8 f6 be 31 40 b0 be 55 9e e3 be
       -0.5317479 -0.48211953 -0.34423974 -0.44456735
000180 cf ab a8 be 2e 89 ff be 6e 7e 00 bf 72 49 ac be
       -0.3294358 -0.49909347 -0.50192916 -0.33649784
000190 f7 4c 8a bf 3a 39 62 bf 9c fe 35 bf 0f 2d 24 bf
       -1.0804738 -0.8836857 -0.7109163 -0.64131254
0001a0 a5 89 a6 3d 62 18 d5 bf b0 85 c5 bf 32 86 a1 bf
       0.08131722 -1.6648066 -1.5431423 -1.2619078
0001b0 be 59 76 bf 83 66 2c be ef 21 2d c0 98 60 26 c0
       -0.96230686 -0.1683598 -2.7051961 -2.5996456
0001c0 65 03 00 c0 08 26 a5 bf 80 44 1a bf 0b 20 49 c0
       -2.0002072 -1.2902231 -0.6026077 -3.1425807
0001d0 1b 29 43 c0 65 54 13 c0 e6 9f cf bf 0f 27 8d bf
       -3.0493839 -2.302026 -1.6220672 -1.1027545
0001e0 fd 6a 57 c0 4d 41 53 c0 40 1e 26 c0 a8 75 06 c0
       -3.365905 -3.3008606 -2.5955963 -2.1009312
0001f0 51 3f e2 bf 09 92 df 3e ea 58 1a 3f eb b5 48 3f
       -1.7675573 0.43666103 0.6029192 0.78402585
000200 79 28 75 3f d5 c9 91 3f ca 18 20 3f 58 5a 3c 3f
       0.9576488 1.1389719 0.62537825 0.73575354
000210 23 ff 61 3f bf b9 7e 3f 93 7f 9a 3f 1f 25 fe 3e
       0.8827993 0.99502176 1.2070183 0.49637696
000220 0a cb 34 3f 74 b2 75 3f b2 c2 6d 3f 0e a9 99 3f
       0.70622313 0.9597542 0.92875206 1.2004716
000230 7f 2a ea 3e a9 70 26 3f 98 bd 7e 3f 49 98 91 3f
       0.45735547 0.65015656 0.9950805 1.1374599
000240 08 c9 a2 3f cc c3 22 3f 67 04 43 3f 0f 22 80 3f
       1.27176 0.6358001 0.7617859 1.0010394
000250 99 5c 9e 3f e0 36 ae 3f f7 d2 40 3f 12 db 78 3f
       1.2372009 1.3610497 0.75321907 0.97209275
000260 6c 61 a1 3f 0c 38 ba 3f 3f 6d 9a 3f 9c 5f fe 3e
       1.2607856 1.4548354 1.2064589 0.4968232
000270 29 59 2c 3f 33 46 a5 3f e0 5f e2 3f 32 c5 d1 3f
       0.6732355 1.2912048 1.7685509 1.6388304
000280 08 37 d2 3e 27 3e 1d 3f d2 0d 9b 3f 87 8d e7 3f
       0.4105761 0.6142296 1.2113593 1.8090066
000290 e4 8b f5 3f c5 98 0a 3f 63 a5 2e 3f fe 90 a5 3f
       1.9183316 0.5413936 0.6822111 1.2934873
0002a0 ec bd fe 3f 8f d8 00 40 19 db ef 3e 42 89 ea 3e
       1.990171 2.0132177 0.46846846 0.45807844
0002b0 57 58 8e 3f 7d 1e d6 3f a4 cd cb 3f 0f 36 c8 3c
       1.1120709 1.6728054 1.5922132 0.02443984
0002c0 11 ed 29 bf be 69 9a 3f b8 0c c1 3f 9d d0 49 3e
       -0.6637736 1.206352 1.5082006 0.19708486
0002d0 02 ca 4b 3f 9d 56 36 bd d6 59 eb 3f 87 90 0e 40
       0.79605114 -0.044516195 1.8386791 2.2275712
0002e0 d4 39 54 3f 88 65 9b 3f 10 8f 2b 3f 21 c0 11 40
       0.8290074 1.214036 0.6701517 2.2773516
0002f0 04 eb 35 40 d6 e8 9e 3f 45 63 c9 3f 1d 4e 3b 3f
       2.8424692 1.2414806 1.573342 0.73166066
000300 4f 04 17 40 08 ee 41 40 b8 2f d1 3f 3f 37 c8 3f
       2.359638 3.0301533 1.6342688 1.564186
000310 72 25 3f 3f 53 20 16 40 b7 c7 55 40 a8 b9 18 40
       0.7466651 2.345723 3.3403146 2.3863316
000320 ca 19 91 bf 99 7c a0 bf 4f 2f b1 bf 6a 30 a6 bf
       -1.1335995 -1.2538024 -1.3842562 -1.2983525
000330 20 15 a1 bf c2 ea b7 bf c2 24 c0 bf db 0b c4 bf
       -1.2584572 -1.4368517 -1.5011218 -1.5316118
000340 84 ae a1 bf f1 c6 96 bf 22 0b e0 bf a4 b2 e0 bf
       -1.2631383 -1.1779462 -1.7503397 -1.7554517
000350 be 6e d8 bf 76 4e b7 bf 8e a3 a9 bf 3a bf d4 bf
       -1.6908796 -1.4320819 -1.3253038 -1.6620858
000360 52 68 d3 bf 76 68 cd bf c6 db b8 bf d9 2f b7 bf
       -1.6516211 -1.6047504 -1.444207 -1.4311477
000370 13 53 d6 bf 22 c7 e2 bf 9c 25 e5 bf da b6 d8 bf
       -1.6744102 -1.771702 -1.7902102 -1.6930802
000380 4a d7 bb bf 54 0c f6 3f c3 21 0b 40 a2 43 ef 3f
       -1.4675076 1.9222512 2.1739357 1.8692515
000390 f5 c8 ad 3f bb e7 91 3f 64 a9 08 40 b1 c8 1c 40
       1.3576952 1.1398844 2.1353388 2.4497492
0003a0 e5 08 0a 40 3d 00 c3 3f 3f 5a 99 3f 89 69 07 40
       2.1567929 1.5234448 1.1980666 2.1158164
0003b0 e7 e1 20 40 57 48 2d 40 d3 1f 0c 40 a4 ca ea 3f
       2.513788 2.7075403 2.1894424 1.8343091
0003c0 81 bf 03 40 9c 19 1c 40 e3 53 2e 40 bc 79 1a 40
       2.0585635 2.439063 2.72387 2.41368
0003d0 d7 02 0d 40 91 82 0c 40 7c 3b 17 40 a4 a6 18 40
       2.2032983 2.1954691 2.3630056 2.385171
0003e0 24 c9 0f 40 c6 80 12 40
       2.2466516 2.2891097

exp_avg_sq f4 [10, 1, 5, 5]
000000 79 f1 aa 42 1a 23 b6 42 80 e9 b4 42 ac c3 a8 42
       85.47163 91.06856 90.456055 84.38217
000010 ec 57 a4 42 81 c6 a0 42 5b 38 a7 42 d0 d1 a7 42
       82.17172 80.3877 83.61007 83.90979
000020 5a de 9f 42 84 c4 a0 42 b6 78 ac 42 82 3e a9 42
       79.93428 80.38382 86.23576 84.622086
000030 c7 ca a7 42 ca d0 a7 42 6f 6c a7 42 5a 0f bf 42
       83.89605 83.90779 83.711784 95.52998
000040 79 64 d2 42 ac 78 cc 42 4b 07 bf 42 a4 5d b7 42
       105.196236 102.23569 95.514244 91.68289
000050 46 a6 bc 42 3b 66 cf 42 1c 03 ca 42 24 26 c3 42
       94.32475 103.69967 101.00607 97.57449
000060 79 bf bb 42 06 81 25 41 fd 72 35 41 da 32 3d 41
       93.87397 10.344 11.340573 11.824915
000070 ba 82 4c 41 4f 5d 41 41 8d cf 38 41 fa 06 44 41
       12.781916 12.08528 11.550672 12.251703
000080 f1 fb 51 41 ff 02 55 41 7b 08 4c 41 2d d4 4b 41
       13.124009 13.313231 12.75207 12.739301
000090 d6 30 44 41 a0 6d 50 41 e8 72 59 41 3c 6b 51 41
       12.261923 13.026764 13.590553 13.08868
0000a0 e5 74 54 41 40 93 4e 41 76 8d 5e 41 20 8e 5e 41
       13.278539 12.91095 13.909536 13.9096985
0000b0 aa 9e 47 41 25 89 4a 41 43 0c 4a 41 98 f3 59 41
       12.476236 12.658483 12.627994 13.621971
0000c0 c5 e7 52 41 33 e9 48 41 48 22 b1 40 71 10 b4 40
       13.181584 12.556933 5.5354347 5.627007
0000d0 8f e6 af 40 c9 29 ac 40 f2 13 a4 40 eb e2 e2 40
       5.4968944 5.3801007 5.1274347 7.0902
0000e0 60 2e e3 40 50 2e dc 40 4b 0e d9 40 12 47 ca 40
       7.099411 6.8806534 6.7829947 6.3211756
0000f0 7a c1 10 41 c0 90 0d 41 3f e5 16 41 23 a1 14 41
       9.0472355 8.847839 9.430968 9.28934
000100 85 c9 ff 40 2e b8 0b 41 30 b9 0f 41 01 f1 21 41
       7.9933496 8.732466 8.982712 10.121339
000110 62 cf 19 41 e8 e2 ff 40 61 de f3 40 1b 52 07 41
       9.613131 7.9964485 7.620896 8.457545
000120 ac ff 11 41 c3 14 02 41 28 c6 e9 40 4c 61 b4 40
       9.12492 8.130069 7.305439 5.636877
000130 fd 76 c1 40 19 bc ce 40 3a 79 d3 40 86 e5 be 40
       6.045775 6.460461 6.608548 5.965518
000140 39 ae bf 40 3c 2e cf 40 c1 43 db 40 77 83 e8 40
       5.9900174 6.474394 6.8520207 7.266048
000150 c9 0a cc 40 59 bd a7 40 f8 48 b8 40 83 bf c9 40
       6.3763165 5.2418637 5.7589073 6.304628
000160 e0 b1 e4 40 63 b3 d6 40 ed f9 a1 40 34 1a b8 40
       7.1467133 6.709398 5.0617585 5.7531986
000170 a3 99 c4 40 9e 4d dc 40 61 63 ca 40 66 ac 9d 40
       6.1437545 6.8844748 6.324631 4.9272947
000180 f4 43 ae 40 3d a1 b5 40 1c 31 be 40 2e 89 a7 40
       5.445795 5.6759324 5.943495 5.2354956
000190 76 41 9c 41 a0 d0 97 41 12 a5 9b 41 4f 33 ab 41
       19.531963 18.976868 19.4556 21.400053
0001a0 e4 ef a8 41 40 eb ae 41 0a c4 be 41 0f d7 c1 41
       21.117134 21.864868 23.845722 24.23001
0001b0 30 05 c0 41 4f 6e aa 41 c6 fc fc 41 aa 2f 04 42
       24.002533 21.303862 31.623425 33.046547
0001c0 8d 1e f1 41 cb 51 d3 41 8b bf b8 41 fc ef 17 42
       30.139917 26.414938 23.093527 37.98436
0001d0 95 54 15 42 43 bb f7 41 72 0e d9 41 38 cc d3 41
       37.3326 30.966436 27.132053 26.474716
0001e0 8b c2 1c 42 1f 95 1e 42 0a ac 0b 42 11 14 fe 41
       39.189983 39.645626 34.918007 31.759798
0001f0 68 0a 00 42 a8 bd 66 41 aa 49 66 41 57 2b 50 41
       32.010162 14.421303 14.392984 13.010581
000200 65 df 4b 41 fa 48 54 41 3f 10 70 41 31 04 73 41
       12.74204 13.267817 15.003966 15.188523
000210 7e bb 60 41 72 e2 4d 41 b2 fa 51 41 a2 cc 5c 41
       14.045774 12.8677845 13.123705 13.799959
000220 d4 72 5e 41 7a df 54 41 1a dd 46 41 45 a3 4e 41
       13.903034 13.30456 12.42898 12.914861
000230 81 3c 60 41 19 b2 5d 41 9e 23 51 41 98 21 40 41
       14.014771 13.855981 13.071196 12.008202
000240 ad ec 49 41 82 30 65 41 6c f1 5e 41 94 fc 4a 41
       12.620282 14.324343 13.933941 12.686665
000250 c3 09 37 41 ba 6c 40 41 9a 67 db 41 2f 3a e3 41
       11.439883 12.026545 27.425587 28.40341
000260 a4 f5 f5 41 04 22 05 42 84 79 05 42 27 27 db 41
       30.744942 33.28322 33.368668 27.394117
000270 c4 be de 41 35 2c fa 41 50 1a 14 42 7c 50 1d 42
       27.843147 31.271585 37.025696 39.328598
000280 1d 46 e2 41 87 88 e8 41 ea df fd 41 15 0f 1e 42
       28.284235 29.066664 31.734333 39.51473
000290 a2 c3 29 42 a6 be e2 41 e7 4c e7 41 05 70 03 42
       42.441048 28.34309 28.91255 32.859394
0002a0 a1 b6 26 42 e2 63 34 42 23 77 f5 41 58 12 02 42
       41.67835 45.09754 30.683172 32.517914
0002b0 9d 7e 20 42 a4 c9 3d 42 17 05 3f 42 03 aa 0b 43
       40.123646 47.446915 47.75497 139.66411
0002c0 74 35 09 43 ed 07 1c 43 94 a5 29 43 49 a6 15 43
       137.2088 156.03096 169.64679 149.64955
0002d0 c7 02 15 43 f1 e3 10 43 db 8e 2a 43 4f 1b 33 43
       149.01085 144.8904 170.55803 179.10667
0002e0 5a fa 12 43 c2 45 16 43 93 b7 16 43 f0 a9 2b 43
       146.97794 150.27249 150.71709 171.66382
0002f0 fb dc 30 43 f2 16 14 43 cb 48 13 43 6e 8f 0e 43
       176.8632 148.08963 147.28435 142.56027
000300 75 70 21 43 8d 99 2b 43 a5 14 14 43 75 6a 0f 43
       161.43929 171.59981 148.08064 143.41585
000310 37 f1 0b 43 58 14 1b 43 16 4c 35 43 04 e8 2d 43
       139.94225 155.07947 181.29721 173.90631
000320 58 b5 11 41 31 19 2c 41 64 8b 14 41 df 0a e3 40
       9.106773 10.75615 9.284031 7.095077
000330 68 e6 f7 40 d3 9d 0f 41 78 17 2a 41 c6 5c 11 41
       7.746876 8.976031 10.63073 9.08515
000340 41 f6 cc 40 a1 4e f1 40 73 4d 00 41 c5 37 19 41
       6.4050603 7.5408483 8.0189085 9.576116
000350 60 ee 01 41 1b 27 c3 40 37 b8 e5 40 9d 20 da 40
       8.120697 6.0985236 7.178737 6.816481
000360 36 93 f4 40 ea cb d5 40 39 3f b2 40 8a 48 dc 40
       7.64297 6.681142 5.5702176 6.883855
000370 2b b6 ca 40 0e 9c d3 40 a4 b8 b0 40 bc bc ab 40
       6.3347373 6.6127996 5.522539 5.366789
000380 3b 63 cb 40 2f f4 c1 41 7c 2b be 41 89 82 a5 41
       6.355863 24.24423 23.771233 20.688738
000390 dc 5f 93 41 ad db 93 41 07 15 d1 41 55 1b cc 41
       18.421806 18.482264 26.135267 25.513346
0003a0 da ad a9 41 ae d3 90 41 99 47 90 41 52 71 c1 41
       21.209888 18.10336 18.03496 24.180332
0003b0 d9 ed bf 41 2b ac ae 41 c9 c2 92 41 80 95 8d 41
       23.991137 21.834066 18.34511 17.697998
0003c0 cd 79 c7 41 34 67 c3 41 60 29 b1 41 99 c1 93 41
       24.934473 24.425392 22.145203 18.46953
0003d0 fc e8 8d 41 6b 7a f1 41 f5 06 e0 41 ef 23 b3 41
       17.738762 30.184774 28.003397 22.392546
0003e0 fe 3d 97 41 90 fc 9b 41
       18.90527 19.498322

exp_avg f4 [10]
000000 49 12 89 c0 84 4b 0e 40 2d cc 78 3f 7b 59 ac bc
       -4.283482 2.223359 0.9718655 -0.021038761
000010 74 c1 b6 40 49 92 82 3f d6 e9 46 c0 ac 21 d8 c0
       5.711115 1.0200893 -3.1080222 -6.7541103
000020 85 50 2d bf 27 79 14 c0
       -0.6770099 -2.3198946

exp_avg_sq f4 [10]
000000 46 fc 8d 43 96 c1 82 41 b8 c2 47 41 8a a2 10 41
       283.9709 16.344524 12.485039 9.039682
000010 a0 1d bd 42 1a a9 03 42 01 d9 f1 42 64 3e fb 43
       94.55786 32.91514 120.923836 502.48743
000020 18 fa a4 41 62 8f b2 42
       20.622116 89.280045
