model_checkpoints/simple_net/checkpoint.pt (torch, 691874 bytes, 24 tensors)

conv_layers.0.weight f4 [10, 1, 5, 5]
000000 40 b1 65 bd e2 fa 04 3e 7c 32 11 3d 52 22 2d bd
       -0.056077242 0.12986329 0.035448536 -0.04226906
000010 ec 73 1c 3e 00 f0 c5 b9 7f cf 59 3d 62 3c 6f bd
       0.15278596 -0.00037753582 0.0531764 -0.058407195
000020 9f 26 71 3e c1 f1 b8 3d bd 25 ac 3d 94 8b 0d 3e
       0.23549889 0.09030486 0.084056355 0.13822776
000030 06 ed 3f 3e ac 88 54 3e fe 8e 63 3e 18 69 e4 3d
       0.18742761 0.20755261 0.22222516 0.111528575
000040 72 c0 e9 bb 83 84 03 3e 62 05 84 bd 6d 45 60 3e
       -0.007133537 0.12843518 -0.06446339 0.21901484
000050 b3 f3 ff 3d 3b a3 68 3d 86 f2 2a 3e 19 8e 9c 3d
       0.12497654 0.056796294 0.16694078 0.076442905
000060 10 9b 3a 3e 83 35 4d be 94 60 78 bd aa 88 62 be
       0.18223214 -0.20039944 -0.06063898 -0.22122446
000070 05 53 6f 3e e3 d1 78 3e 5f 4f 91 be 75 1f 1e bd
       0.23371513 0.24298815 -0.28380868 -0.03860422
000080 d5 92 71 be fe a9 62 3e 85 44 b0 3e 56 2b 8e be
       -0.23591168 0.2213516 0.34427276 -0.27767438
000090 81 67 42 bd 3f 00 34 3e 78 a2 45 bc 22 9d 29 3e
       -0.04746199 0.17578219 -0.012062661 0.16563848
0000a0 6f 8f fd bd a4 4d cc bd 1e 5b 4e be 58 57 27 3e
       -0.123808734 -0.09975746 -0.20151946 0.16341913
0000b0 e5 fb 95 3e 1d 25 74 3d 87 5d b0 3c 38 dd 6c be
       0.29293743 0.059605706 0.021528972 -0.23131263
0000c0 11 44 34 3e ca 56 42 bd 25 f4 a1 3d ee 25 78 3e
       0.1760409 -0.04744605 0.07907895 0.24233219
0000d0 41 d2 76 be ec 7f 1c be cf 5b 27 be 97 36 99 3e
       -0.24103643 -0.15283173 -0.16343616 0.2992446
0000e0 80 22 a5 3d 31 b8 a4 bd 68 c6 1f bd c2 a2 d8 3c
       0.08063221 -0.08042944 -0.039007574 0.026444796
0000f0 83 95 9d 3e bd b2 8b 3d 22 1e 89 be b8 7b 52 be
       0.3077813 0.06821201 -0.26780802 -0.20555007
000100 4a ef dc bd b4 f8 19 3e 4e 37 6a 3e 18 01 1b be
       -0.10787828 0.15036279 0.2287266 -0.15137136
000110 a4 02 84 3c ab 88 c2 3d d7 79 ac bd c6 b6 08 3c
       0.01611454 0.094987236 -0.084216766 0.008344358
000120 3b 32 4a be 17 1e 1c 3e 7a d3 2c be dc 34 a8 3e
       -0.19745724 0.15245853 -0.16877547 0.32852829
000130 77 7a 48 3e 7e 8a 67 3e b1 76 8d 3e 63 76 92 3e
       0.19577967 0.22611424 0.27629617 0.28605947
000140 4f 0f 1d bc 69 5a 76 3e a2 5d 8f 3e 8c 2e 90 3e
       -0.009586169 0.24057926 0.28001124 0.28160512
000150 ff f6 a1 3d 41 73 50 bd b1 cd bd bd c3 c7 64 be
       0.07908439 -0.050891165 -0.09267748 -0.22341828
000160 7d f5 32 bc 6a 3e 58 be 81 a9 07 be 72 b0 9b be
       -0.010922787 -0.21117559 -0.13248254 -0.30408055
000170 65 7b e2 bc cc b8 70 be f7 19 aa bc cc 57 34 be
       -0.02764673 -0.23507994 -0.020764334 -0.17611617
000180 1b ec 91 be 57 94 bc bd 7d 9b 6b be 04 b1 34 3d
       -0.28500447 -0.09207981 -0.23008533 0.044114128
000190 4e 61 e8 bd 94 0f 97 3d 58 26 24 3e d5 4e 33 3e
       -0.113466844 0.07376018 0.16030252 0.17510541
0001a0 29 06 0d bd 68 c6 3b 3e e9 b3 fb 3d bb 66 9f bd
       -0.034429703 0.18337405 0.122901745 -0.07783266
0001b0 78 c4 a4 3c 52 92 eb 3d e9 b7 3c 3e 5d 1d 85 3e
       0.020113215 0.11502518 0.18429531 0.25998965
0001c0 f9 f2 79 3e 9e 37 24 3e 7f f6 f3 3d 3a 88 d0 3d
       0.24409093 0.16036841 0.1191225 0.10182233
0001d0 c9 b4 aa bc c1 5a b5 bd 76 e2 20 3e df c2 ec bd
       -0.020838158 -0.088552006 0.15711388 -0.11560606
0001e0 1f 2b 98 bd 18 2b 53 3e 5d 24 2c 3c 48 65 0f be
       -0.074301 0.20621908 0.010506717 -0.1400348
0001f0 b8 7e 24 3d 7b 67 30 3e 48 f1 fd bd 8a 32 9d bd
       0.04015991 0.17226975 -0.12399536 -0.07675655
000200 bf 5c 53 be b2 e4 52 bd 3d d9 d2 bd 1b 8b 9f bd
       -0.20640849 -0.051487632 -0.10295341 -0.07790204
000210 52 a5 04 3e 28 f9 38 3e d6 63 40 be 3f 8c 8f 3a
       0.1295369 0.18063796 -0.18788084 0.0010951831
000220 5e 99 6c bd 53 56 73 be c6 29 15 be ab b8 eb 3d
       -0.05776345 -0.23763399 -0.14566717 0.11509832
000230 8c cf 6c bd 1d 5b 22 3d c3 9d 46 be 74 7c 4d be
       -0.05781512 0.039637674 -0.19396119 -0.20067006
000240 24 16 b3 bc 09 86 14 3d 1b dc 9f bd b7 79 5d be
       -0.021861143 0.03626064 -0.07805654 -0.21628462
000250 70 ab 29 be 28 64 51 be 68 f6 a7 be 51 5f 45 be
       -0.16569304 -0.20448363 -0.3280518 -0.19274642
000260 97 5b 50 be 6d 37 19 3e 0a d9 c8 3d 82 80 21 bd
       -0.20347439 0.1496255 0.09807022 -0.039429195
000270 05 7d 98 be b0 c8 14 3e 5b 34 36 3e 4b 5a db bd
       -0.29782882 0.14529681 0.1779341 -0.107105814
000280 91 cd 91 3e 4d e4 cc bd f0 7a 0f bc b5 6b 00 bd
       0.28477147 -0.100044824 -0.008757338 -0.031352717
000290 0c 9d 91 bd 23 38 6a 3c 69 6c c6 3e d1 ca ed 3a
       -0.071100324 0.014295611 0.38754585 0.0018142109
0002a0 1a 74 97 be 83 13 81 3d 8c 1b c5 3d 1f 5c 3e 3e
       -0.29580766 0.0630255 0.09624395 0.18589829
0002b0 68 5e cb 3d 15 74 03 bd ec 1a 17 3c 37 43 b6 bc
       0.09930116 -0.032093126 0.009222727 -0.022248847
0002c0 7c 6b 07 be 03 a9 95 3d c9 eb 32 be cf cb 71 be
       -0.13224596 0.07307627 -0.17472757 -0.23612903
0002d0 d2 77 ec bd 0b b8 9a 3e d1 05 3d 3e 94 0f 2e 3e
       -0.115462914 0.3021854 0.1845925 0.1699813
0002e0 e3 0f 64 3e 8b c6 39 be 0c 47 2c 3d 63 0d db bb
       0.22271685 -0.18142144 0.042059943 -0.0066849454
0002f0 ad f4 6c 3c 7a 7e e1 bb 44 f4 3d bd d7 60 83 3e
       0.014462632 -0.0068815323 -0.046375528 0.2565982
000300 4c d7 e1 3c 73 bc 4a be 20 2c 9a 3c 0b 0b a4 be
       0.027568482 -0.1979845 0.018819869 -0.32039675
000310 2a f3 b8 3d 27 10 4b 3d 2c 47 24 bc b6 6e f6 ba
       0.09030755 0.04957595 -0.010026734 -0.0018801305
000320 9f dc 36 3e 73 44 07 3e a9 1a 3f 3e 1c 9f a3 be
       0.17857598 0.13209705 0.18662514 -0.31957328
000330 61 b2 5f be 93 ce 84 3d cf fd 96 3d ab ee f6 3d
       -0.2184539 0.064847134 0.07372629 0.12057241
000340 8b de 99 be 6e c2 38 bd 19 9c 43 be af 14 f5 3d
       -0.300526 -0.045107298 -0.19102515 0.11966836
000350 1f e1 94 3e d7 ee bd bd b9 d4 1e be 01 ac 0b 3d
       0.29078004 -0.09274071 -0.15510835 0.034099583
000360 81 3d cc 3d 7a a3 35 3e 4b fc fa bd 02 01 27 be
       0.099726684 0.17738143 -0.12255152 -0.16308978
000370 1a 65 d4 3c db f1 9a bd 5e cd 65 3e 67 53 9a bd
       0.025927115 -0.075656615 0.22441623 -0.07535439
000380 e9 8a d7 3d 87 58 07 be bd cb 25 3d 8b fc 18 3e
       0.10524542 -0.13217364 0.040477503 0.14940087
000390 17 48 ad bd 89 ad b1 be ce a6 17 3e c0 24 15 3e
       -0.08461016 -0.3470271 0.14809725 0.145648
0003a0 0c 99 e0 bd af 6e 1f be f3 4c 35 3d 65 96 79 bc
       -0.109666914 -0.15569566 0.044262838 -0.015233611
0003b0 e0 49 50 be e6 f4 c8 3d b9 4c 70 bd 96 4d 4d 3e
       -0.20340681 0.09812336 -0.05866692 0.20049128
0003c0 62 9c 2e 3c 14 a6 60 3d d0 86 61 bd 1e 5c 4c 3e
       0.010657402 0.054845884 -0.055060208 0.19957015
0003d0 ac 6b 21 3e 40 9d 50 be 06 d7 0a 3e e3 e4 6e 3c
       0.1576373 -0.20372486 0.13558587 0.014580938
0003e0 74 2b 34 3e 7b 71 29 3e
       0.17594701 0.16547196

conv_layers.0.bias f4 [10]
000000 37 e1 92 bd 7e ee cf bc 22 a4 c9 bd b6 00 f2 3d
       -0.071718626 -0.025382277 -0.09845759 0.11816542
000010 1d 77 9d bd d2 32 ab bd 57 e5 bd bc 88 8e b8 bc
       -0.07688735 -0.083593026 -0.023180647 -0.022528902
000020 11 0b 01 3e c0 ad 84 3e
       0.12601878 0.2591381

conv_layers.3.weight f4 [20, 10, 5, 5]
000000 fa af fc 3d ea 4b 88 bc f9 e0 56 be 3f 68 3b bd
       0.12338252 -0.016637761 -0.20984258 -0.045753714
000010 a4 35 76 bc bc 03 ac 3d 12 b5 c2 bc 4d 17 32 be
       -0.015027437 0.0839915 -0.023767982 -0.17391701
000020 d1 d2 9e be 32 2a 6d 3d 3e 06 47 be 2d 93 ad be
       -0.31020215 0.05790157 -0.19435975 -0.3390135
000030 8a 35 44 be 86 11 5c bd 0e 8c 37 3e a3 68 61 be
       -0.19161049 -0.05372765 0.1792452 -0.22012572
000040 5f 7a 89 be ee 36 c3 bd d8 24 2a 3e 7d 6a 5d 3e
       -0.26851174 -0.095319614 0.16615617 0.21622653
000050 95 26 07 3e ce 82 91 3d e3 27 8b bd 4c 5a 82 3b
       0.13198312 0.07105027 -0.06794717 0.0039780494
000060 70 af d9 bd 3d 38 1d 3d 38 11 8a 3d be 93 95 3d
       -0.10629165 0.03838371 0.067415655 0.0730357
000070 a3 92 32 be 4c 66 bb bd 7f 5e d4 bc 0e 70 ee 39
       -0.1743875 -0.09150371 -0.025923965 0.00045478385
000080 56 54 bc bd c9 12 1f be 2a 29 be 3d 60 73 98 bd
       -0.09195773 -0.1553451 0.09285195 -0.07443881
000090 12 b7 92 bc 8d 08 5d 3c 28 fd 8c 3d 50 01 82 3e
       -0.01790956 0.013490808 0.06884223 0.25391626
0000a0 81 96 db bd fd 49 92 bd a4 4d ca 3d d7 f1 46 3e
       -0.10722066 -0.071430184 0.0987809 0.19428192
0000b0 e0 a1 57 3e cd a8 05 3e 51 63 88 3d 61 10 b0 3d
       0.21057844 0.13052674 0.06659568 0.08596874
0000c0 82 00 fc 39 d2 89 67 bd b0 99 00 bd d2 f0 46 3e
       0.00048065564 -0.05652792 -0.031396568 0.19427803
0000d0 fb 67 38 3d e7 45 4f bc f3 c9 93 bd 5e 63 4d be
       0.04502104 -0.012650943 -0.07216253 -0.20057437
0000e0 0c c5 5d 3d 6c 18 a0 bd 74 4e 48 bb c9 8f cc be
       0.054142997 -0.07817158 -0.003056434 -0.3995345
0000f0 b7 0f 62 3d d1 cd 8b be ec 18 3f be 0f a0 97 bd
       0.055190768 -0.27305463 -0.1866185 -0.07403576
000100 ed dc 92 be 26 48 01 be 5f 59 78 be fd 87 21 be
       -0.28684178 -0.12625179 -0.24252842 -0.15774532
000110 73 a6 a8 bd 87 dd 70 3d 9f ff 94 be ce 27 a1 be
       -0.08234873 0.058805015 -0.29101273 -0.3147568
000120 a3 bb 36 be 8f 6a 0d bd ca 2e 07 3e 56 f0 8f 3d
       -0.17845015 -0.03452545 0.13201442 0.07028262
000130 d6 5e 85 ba 38 72 9a 3c f7 3e 5f 3d 8b 21 30 3d
       -0.0010175358 0.018853292 0.054503407 0.04300074
000140 bc b5 0f 3e ce 4c bd 3d 27 59 5f bd 31 25 00 bd
       0.1403417 0.09243165 -0.05452838 -0.03128547
000150 bd 85 d6 bd c9 80 14 3e da 4b 49 3d 41 58 4a bd
       -0.10474727 0.14502253 0.049144603 -0.04940057
000160 52 14 59 bd a1 60 f2 3c ed ba 30 3d 7c 77 9d 3c
       -0.052997895 0.029587092 0.043147016 0.019222014
000170 a3 b4 17 be 08 54 35 bd 65 a9 c5 3d 5f 06 74 bc
       -0.14815001 -0.04426959 0.0965145 -0.014894097
000180 ea ad c4 bd 0d de ce bd af d2 b6 3c c7 55 d5 3d
       -0.09603484 -0.101009466 0.022317259 0.10416751
000190 45 14 dc 3d 94 c3 98 bb 02 26 a0 bd 10 eb 03 be
       0.107460536 -0.0046619866 -0.078197494 -0.12882638
0001a0 e4 53 10 bd bf 9b fd 3d e1 d7 ba 3b f5 17 1f be
       -0.035236254 0.12383222 0.0057020043 -0.15536483
0001b0 54 70 64 be 3b 82 0e bd 63 bb f8 bd 2f c7 9c be
       -0.22308475 -0.034792166 -0.12145116 -0.30620715
0001c0 7c ff 76 be 53 47 e8 bd c9 fd 1f 3e 57 b2 6c be
       -0.24120897 -0.11341729 0.15624155 -0.23114906
0001d0 bc 19 86 be af 5b 02 be e4 d4 1b 3e 71 0c 49 3e
       -0.2619151 -0.12730287 0.1521793 0.19633652
0001e0 e7 63 19 3d d2 52 c4 3d d0 08 62 bd de 94 b1 3c
       0.03744879 0.09586109 -0.055184186 0.02167743
0001f0 ef a3 01 bd 2f d8 91 bc af 8f 09 3e e8 99 68 3d
       -0.03165048 -0.01780328 0.13433717 0.0567874
000200 3f 5d d6 3d 04 f5 34 3d fa 72 82 3c a2 49 3a 3d
       0.10467004 0.044178978 0.015923966 0.045480378
000210 fb 70 82 3c e9 22 d9 bc 9a 6d 2e bd 4c 6f 73 bc
       0.015923014 -0.026505904 -0.042584993 -0.014858078
000220 75 dd 16 bc ef 65 9d bc 47 54 b8 bd d5 a5 2d be
       -0.009208073 -0.019213645 -0.0900045 -0.16957791
000230 e7 f3 89 3d 08 ed 08 bd 88 3c 19 3d 84 96 a3 3b
       0.06735974 -0.033429176 0.037411243 0.004992308
000240 98 c0 6f bd 3e 30 e8 b8 2d 39 ea bc 4b 98 99 bd
       -0.05853328 -0.00011071608 -0.028591717 -0.07499751
000250 85 cc 82 3d 21 f6 f8 3b b8 4f 21 3e 7a 07 33 3e
       0.06386665 0.0075977 0.15753067 0.17483321
000260 d7 07 d7 3d a1 b3 8f 3a 2b b9 40 bd 8c 0c 9e bd
       0.10499542 0.0010963568 -0.04705159 -0.07717237
000270 40 f8 27 be b2 a8 a1 3b a4 4b 60 3c 41 fd 49 3d
       -0.16403294 0.00493344 0.013689909 0.049313787
000280 a1 72 18 be 0f c5 08 3c c4 52 05 be 4e d9 ec 3c
       -0.14887477 0.008347764 -0.13019854 0.028912213
000290 18 1c 44 3e 9a 9f 13 be eb 8b 36 be ff df 9d bc
       0.19151342 -0.14416352 -0.17826812 -0.019271849
0002a0 22 4e 0c 3e 1d ed 35 3e 26 d2 db bd 6d ff de bd
       0.1370168 0.17766233 -0.10733442 -0.10888562
0002b0 7f 67 d5 bd 74 69 c4 bd e4 a9 52 be bf 96 11 3e
       -0.10420131 -0.09590426 -0.2057262 0.14217661
0002c0 b5 bb 38 3d a2 55 6a bd 58 b5 b7 bd 32 e9 7c be
       0.045100886 -0.057210572 -0.089701355 -0.24698332
0002d0 68 e6 af bc b4 73 b7 bd 34 4a bf bd 55 77 64 be
       -0.021472171 -0.089576155 -0.09340325 -0.22311147
0002e0 d1 96 49 be 84 85 bb be 5d d8 b0 be ff 12 62 be
       -0.19686438 -0.36625302 -0.34540072 -0.22077559
0002f0 5b 5c 29 bd 32 3a 94 3d ed 8c 7a be cd a5 bf be
       -0.041347843 0.072376624 -0.24467821 -0.37431183
000300 f6 29 3c be cd eb 03 bd 91 e5 d5 bc 4a 72 05 be
       -0.18375382 -0.0322073 -0.026110442 -0.13031879
000310 80 6f 71 be c9 e0 bb bd 3f b3 12 be c3 1c 51 3c
       -0.2357769 -0.09173734 -0.1432619 0.012763205
000320 19 41 81 3d 67 62 55 3e c2 54 8b 3d b7 af f5 bd
       0.063112445 0.20838319 0.06803276 -0.119964056
000330 b9 2a c3 bc d5 7f fa 3c 90 ec e3 3d 0c 81 6c 3d
       -0.023824083 0.030578533 0.11129105 0.057740256
000340 97 ec 02 bd dd 2c 86 be ea 6e 90 bd 0e 6a e7 ba
       -0.03196391 -0.26206103 -0.07052405 -0.0017655508
000350 1b 0f 8e bd 8a 7f e5 bd cc 50 31 be de f7 58 3d
       -0.06936475 -0.11205967 -0.17315978 0.05297076
000360 33 0d f7 bd 0c d3 1d bb 85 d1 b9 bd d8 d3 05 3e
       -0.120630644 -0.0024082093 -0.09073166 0.13069093
000370 25 d3 21 be 4b 29 0f be 86 aa 15 bd b6 eb e6 3c
       -0.15803201 -0.13980596 -0.036539577 0.028188568
000380 32 15 ab 3d b3 ac 4c 3e 22 f6 5b bd 79 da b9 3c
       0.08353652 0.19987755 -0.053701527 0.022687184
000390 60 5c 45 be 96 64 d0 3c 3f be 3b bd 78 17 b7 3d
       -0.1927352 0.025438588 -0.04583573 0.08940023
0003a0 42 01 39 3d ff 59 ae bc 74 d4 1c 3e 5e 1c d7 bd
       0.045167215 -0.021283148 0.1531542 -0.105034575
0003b0 2a 2e f4 bd ff 9a 0c 3e 7d 3e 6e 3e 83 3d 33 3e
       -0.119228676 0.13731001 0.23266025 0.17503934
0003c0 7f 43 64 bd 94 04 b4 bc 7b 19 03 3e 90 ea 35 3e
       -0.05572843 -0.02197484 0.12802689 0.1776526
0003d0 e7 b3 0f 3e 26 47 20 3d cb 06 4f 3c 3c c1 3b be
       0.14033471 0.039130352 0.012635897 -0.18335432
0003e0 ce 6b ab bd 4b ff 0b be b4 41 b9 bd 67 a5 c9 3d
       -0.083701715 -0.13671605 -0.09045735 0.09846001
0003f0 2e 04 d5 bc 7a 2c 3d 3d a4 ba b1 3d 40 86 e6 3c
       -0.02600297 0.046184994 0.08678177 0.028140187

conv_layers.3.bias f4 [20]
000000 1f 9c 2d 3e de ab 52 3e ef e4 1d 3e ea 65 30 be
       0.16954087 0.20573375 0.15419362 -0.17226377
000010 97 7f a8 bd c2 9d 56 bd 65 3b 16 3e 7c fe f5 bb
       -0.08227461 -0.052396543 0.14671095 -0.0075071435
000020 bd 3c ad 3d 83 4f 10 bd 59 6a d6 bc c3 43 2c be
       0.084588505 -0.03523208 -0.026173757 -0.16822724
000030 78 d9 66 be a7 4e 21 3e c4 fd 22 be f9 c1 9f 3d
       -0.22543895 0.1575266 -0.15917116 0.07800669
000040 3c 18 92 3a 31 17 24 3d c1 e9 28 be 09 2c f4 3d
       0.0011146138 0.04006118 -0.1649542 0.119224615

fc_layers.0.weight f4 [100, 500]
000000 e1 d0 9e bc 6c 0c fa bd 71 d1 51 be 14 6c 9a bc
       -0.01938671 -0.122094005 -0.20490052 -0.018850364
000010 9f 87 17 be f7 e3 cf 3c d7 6a 82 3d ea 4a b7 3d
       -0.14797829 0.025377257 0.06368034 0.089498356
000020 ff e4 83 3d 8e 24 9a 3d a5 b4 e0 3c da 8f 09 be
       0.06440162 0.075265035 0.027429888 -0.13433781
000030 a1 93 00 be 6c a1 0a be 73 b6 1e 3e 3c be ce 3d
       -0.12556316 -0.1353814 0.15499286 0.10094878
000040 49 3f 47 bd 4e 59 40 bd fe d1 2f 3d 42 ef 4f bd
       -0.048644338 -0.046960168 0.042924874 -0.050765283
000050 7d 16 8c 3c 8f 40 bb bc 1f 2d 83 3c a8 b2 8e bd
       0.017100567 -0.022857932 0.016012726 -0.0696767
000060 33 fa 63 be 24 40 1d 3d 0f 67 9f 3d 62 51 0a 3c
       -0.22263412 0.038391247 0.07783329 0.008442255
000070 4b 3e 90 3d 51 c5 8e 3d 28 bd c1 3d 6f 4f bd bb
       0.070431314 0.06971229 0.09459907 -0.0057772915
000080 c0 24 25 3c 65 16 9c bb 53 07 13 3e fc fd f7 3c
       0.010079563 -0.004763412 0.14358263 0.030272476
000090 c4 e1 3f 3d 76 8d b5 3d a0 27 35 3e f3 d0 90 bd
       0.046846166 0.08864872 0.17690897 -0.07071104
0000a0 14 e8 91 3d 3e f0 88 bc 8e 47 cf bc 72 b1 64 3d
       0.071243435 -0.016716119 -0.025302675 0.055833288
0000b0 ce 8e f7 bd 92 6f 80 3d 07 61 63 bb eb 60 4c bd
       -0.12087785 0.0627128 -0.0034695284 -0.049897116
0000c0 b7 a8 b5 3c e4 d1 3c 3b 38 c5 a4 3d 7f f0 87 3d
       0.022175176 0.0028811628 0.08045429 0.06637668
0000d0 3f 9e ff bc 8e cc f8 3a 23 05 a2 3d dd b3 dc bc
       -0.031203387 0.001898186 0.07911136 -0.026941234
0000e0 06 8e 0d bd 5e 3b e0 bc a8 b5 68 3c 7e 91 fe bc
       -0.034559272 -0.027372058 0.0142034665 -0.031075235
0000f0 eb fb ec bc 69 34 96 3d 18 54 ee 3d 6e 6a 63 3d
       -0.028928718 0.07334215 0.11637133 0.05552142
000100 6a b9 42 3d 44 f0 bd bd e3 36 00 3d d6 8f 31 3d
       0.047540106 -0.09274343 0.031302344 0.043350063
000110 b2 be 11 3e 9f 71 b1 3d e5 23 a1 3d 4c ef 94 3d
       0.142329 0.0866425 0.078681745 0.07272205
000120 d3 af df bc 49 70 96 3c b3 d1 f0 3d 6b a4 e2 3d
       -0.02730552 0.018364089 0.11758747 0.110665165
000130 59 3f 0b bd 83 bd 41 bd 63 45 8e 3c 69 56 71 bc
       -0.03399596 -0.047299873 0.01736707 -0.014730074
000140 b6 3e 02 3d c0 e2 eb 3b 51 00 a4 bd fb e2 1d bd
       0.031798087 0.0071986616 -0.08007873 -0.038546544
000150 4d bc 1e bd e6 4c 50 3c 1b ef 27 3b 42 da 0d bd
       -0.038753796 0.0127136465 0.0025624696 -0.034631975
000160 0a af 3a 3d 07 31 c3 3d 76 f8 a5 bd 89 99 c7 3c
       0.045577087 0.095308356 -0.08104031 0.024365203
000170 df c7 e9 bd 0a 18 e1 3c 88 ec 6d bd b2 e9 10 bb
       -0.114150755 0.027477283 -0.058086902 -0.002211195
000180 a4 13 ac ba d6 53 22 3d e1 55 01 3d ec 85 7e 3c
       -0.0013128412 0.039630733 0.03157604 0.015534859
000190 7f 5a 2a bd 5f 36 40 bd c0 4e ae b7 20 5b cd bc
       -0.04159021 -0.046926852 -2.0779087e-05 -0.025067866
0001a0 9d 6b 0b 3d 3a 51 95 bd 8f 15 b4 3d 3f fa b5 bc
       0.034038175 -0.07290883 0.087931745 -0.022214053
0001b0 49 ca 18 3d 30 38 1f bc 42 1f 3c 3d e6 32 d5 3d
       0.03730229 -0.009717986 0.045928247 0.10410099
0001c0 d0 54 a8 bc 64 92 50 3d 22 42 c4 3c d8 e1 e0 bd
       -0.020548254 0.05092086 0.023957316 -0.10980576
0001d0 d7 f0 4f 3d 5f 21 37 3d 54 36 56 bc 86 39 18 bd
       0.050766792 0.04470956 -0.013074476 -0.037164234
0001e0 71 a6 88 bd 88 95 82 3c c6 b8 40 bb eb 7b 44 3d
       -0.06672371 0.015940443 -0.0029407009 0.04796974
0001f0 49 01 18 3c f9 5a d7 3b 68 4b d9 3c c6 90 30 bd
       0.00927765 0.006572124 0.026525214 -0.043106817
000200 4d 6c d8 3c 46 0e 91 bd fd b4 2f bd ae 41 ed bb
       0.02641883 -0.070828006 -0.042897213 -0.0072404956
000210 4a e9 5e 3d e1 3d 86 3e 79 f2 62 bc 3c 27 1c 3d
       0.0544217 0.26219085 -0.013851755 0.038123354
000220 77 e4 a4 bd 02 7e 96 bd d8 3a 27 3d 0f f0 b6 bd
       -0.08051389 -0.07348253 0.040827602 -0.08932506
000230 f5 cd 27 3e f0 e1 6d 3d c6 64 e3 3d 42 e7 3c bc
       0.1638716 0.0580768 0.111032054 -0.0115297455
000240 c0 ba 01 be e5 08 4f 3d ee 0b 7c bd ee 3d 27 3d
       -0.12668896 0.05054559 -0.061534815 0.040830545
000250 3e e0 3d bd 3e d9 0b be 2e 62 21 bd 74 d7 26 bd
       -0.046356432 -0.1365709 -0.039400272 -0.040732816
000260 6b 75 85 3d 65 3d eb 3c 14 84 b0 3d b8 ab 6d 3d
       0.06516536 0.028715799 0.08618942 0.058025092
000270 81 a7 d1 38 8e d4 18 3d 99 b2 20 3d f6 13 c2 3d
       9.997097e-05 0.037312083 0.039232824 0.094764635
000280 1f d0 80 3d e3 07 f9 bd d9 ea 20 3d fc 22 36 3b
       0.06289696 -0.121597074 0.03928647 0.0027791848
000290 d3 d4 35 3b 44 1f c8 3d 2f 11 55 3d 05 b4 31 3d
       0.0027745261 0.097715884 0.05201834 0.04338457
0002a0 1b 1b 31 bd 53 40 53 3d a5 37 58 bc de 82 87 bd
       -0.04323874 0.051575016 -0.01319686 -0.06616758
0002b0 ee 15 bf bc 04 48 56 bc 6f 30 1f bc 27 67 e9 bc
       -0.023325887 -0.013078693 -0.009716137 -0.02849157
0002c0 76 5f 83 bd 8a e8 6d 3c 5c d4 0c 3e d3 de 8c bd
       -0.06414692 0.014520774 0.13752884 -0.06878438
0002d0 e7 2d 6d bd 24 b9 50 3d 14 75 0a 3d 98 b4 94 bd
       -0.057905104 0.050957814 0.03380306 -0.07261008
0002e0 f4 44 ad bd b0 21 ca 3c a9 59 22 bd 34 f7 ee bd
       -0.084604174 0.024674267 -0.039636288 -0.11668244
0002f0 30 30 cd bd 40 dc 77 bd b9 28 e6 bd 49 4d 0d be
       -0.10018957 -0.06051278 -0.11238236 -0.13799013
000300 3b 6b b2 bd 41 04 d8 39 08 20 5c be 83 a4 d7 bd
       -0.08711859 0.000412019 -0.21496594 -0.10529425
000310 6a 6a 30 be fe ca 65 be f8 36 c2 bd 07 a4 c2 bd
       -0.17228094 -0.22440717 -0.09483141 -0.09503942
000320 44 0c 11 3e db 0e 63 bc 81 fd 19 bd 24 3e 92 3d
       0.14164835 -0.013858522 -0.037595276 0.07140759
000330 5f 3f 6b bb 9d ed e0 3d 80 74 d6 3d 15 61 f5 39
       -0.0035895926 0.10982821 0.10471439 0.00046802373
000340 c6 c4 81 3d fc 79 2e 3d 7e 73 ec 3d e9 5b 8a 3d
       0.0633636 0.042596802 0.11545466 0.06755812
000350 2b f5 f7 3d 44 9e 80 3d 66 13 3e bd c9 06 1b 3e
       0.12107309 0.06280187 -0.04640522 0.15139307
000360 fb 9f 81 3d c6 0e af 3d 10 90 c9 bd af 30 47 3d
       0.06329342 0.0854774 -0.09841931 0.048630413
000370 1d 7f a6 3b 8b 4a 2a 3c 3c 7e 16 bd 00 05 0d 3d
       0.005081071 0.010393749 -0.03674148 0.034428596
000380 de 4c 9f 3d 55 a4 2a 3d 0d 14 0e bd ef 67 f0 bc
       0.07778333 0.041660625 -0.03468709 -0.029346434
000390 2b 0b 22 3d ca a1 12 bc 5e b3 77 bd 6f 48 84 bd
       0.03956143 -0.008949706 -0.060473792 -0.06459128
0003a0 53 09 32 3d c1 cb 19 bd 5e 1f 62 bd 1a b4 94 3c
       0.043465924 -0.03754783 -0.055205695 0.018152285
0003b0 4b e4 2e bd 1f b9 86 bd b4 52 74 3d 27 08 d6 bd
       -0.042698186 -0.06578278 0.059649184 -0.10450774
0003c0 26 22 4c bc 53 52 e3 3d d9 00 ec 3c c5 da d4 3c
       -0.0124593135 0.110996865 0.028808998 0.025983224
0003d0 b3 e5 4b bd d3 cd 5d bc 04 bb 05 bd d1 59 79 bd
       -0.049779605 -0.013537842 -0.032649055 -0.06087667
0003e0 47 6f 51 3d 5e f4 c5 bd db eb 92 bd c1 45 f6 bd
       0.051131513 -0.0966575 -0.07173892 -0.12025023
0003f0 30 a5 4c 3d f2 a6 66 bc 89 41 e9 bc 06 d5 86 bc
       0.049962223 -0.014077889 -0.028473632 -0.016459

fc_layers.0.bias f4 [100]
000000 ca fc aa 3e 9e cd bf bd 99 fa 93 3c 14 fe d6 bd
       0.33395988 -0.0936539 0.01806383 -0.1049768
000010 90 22 e8 bd e1 bb 21 3d 1b e1 29 be eb d7 15 3c
       -0.11334717 0.039485816 -0.16589777 0.009145717
000020 79 ee fa 3c 9a 0a a3 bd d7 48 41 be d9 25 57 3d
       0.03063129 -0.079610065 -0.18875442 0.05252633
000030 e4 ab 27 be 84 58 75 bd 94 3d 7e bd 95 55 8c bd
       -0.16374165 -0.05989887 -0.062070444 -0.06852261
000040 fb d5 fa 3d bc 75 de 3d 88 5e 34 3c db 06 98 bd
       0.12247845 0.108623 0.011008866 -0.074231826
000050 59 bd 37 3c 75 fe fe 3d b2 87 3f bd cd 41 1a be
       0.011214578 0.124508776 -0.04676027 -0.15064164
000060 0b 88 8a bd cd 1d 60 be 82 5b 3f be 6a 5e bd 3d
       -0.067642294 -0.21886368 -0.18687251 0.09246524
000070 16 d2 fd bc d6 36 6e 3d a9 8b aa bc 2d 0a 26 be
       -0.030983966 0.058157764 -0.020818548 -0.16214819
000080 79 88 04 3e c5 bb 46 3d 28 0c c3 bd ae 51 03 3d
       0.12942685 0.048518915 -0.09523803 0.032060318
000090 64 52 da bd 29 b9 64 be e0 1a cf 3d 5c 1a 12 be
       -0.10660246 -0.22336258 0.10112548 -0.14267868
0000a0 8e 1d 4d 3b 48 cc 72 be 02 4a 02 be fd 2f 6f 3e
       0.0031298134 -0.2371074 -0.12723544 0.2335815
0000b0 3b 01 92 3e 36 43 69 3e 67 08 9e 3d 05 97 a7 3c
       0.28516564 0.22779545 0.07716446 0.020457754
0000c0 3e 4f f7 3c 10 31 3d 3d 77 bc 29 bc f7 fe 01 3c
       0.030189153 0.046189368 -0.010359875 0.0079343235
0000d0 ad 7f f4 3d bf 58 6b 3e 57 65 2b 3e 2a 01 bd bd
       0.11938415 0.22983073 0.16737877 -0.09228738
0000e0 e9 9d 62 bd 55 f3 a7 bd 39 27 fa bd ad b2 87 3d
       -0.055326376 -0.08200709 -0.122145124 0.066258766
0000f0 be 8d 23 3e 8e d4 8e bd 9a bd 21 3e 1e 46 66 3e
       0.15972039 -0.06974135 0.15794984 0.22487685
000100 f6 86 a4 be 12 f2 5c 3c 5b aa d0 3c 53 f7 f2 3d
       -0.32134217 0.013485448 0.025471857 0.118635796
000110 74 98 bf bd 03 ac d1 3d 0d a4 17 bd 23 09 9d bd
       -0.0935525 0.10237887 -0.037021685 -0.07667758
000120 ab f1 1b 3e f8 85 43 3c ef 43 51 bd a7 ed 23 3d
       0.15228908 0.011933796 -0.051090177 0.040021565
000130 24 85 18 3e 6e 27 77 3d 81 5f 15 be 99 47 26 be
       0.14894539 0.060340337 -0.14587213 -0.1623825
000140 70 e8 a1 3d d0 38 af 3d 3c 42 c6 bd f7 ea fd bd
       0.07905662 0.08555758 -0.09680602 -0.123983316
000150 e1 78 1d 3d e7 b9 0f 3e 9a 5d 65 3d fe 0e c1 3d
       0.038445357 0.1403576 0.05599747 0.09426688
000160 1d 6e aa bd fc 1d 70 3d f0 6a f6 3d c7 04 8b 3c
       -0.08321784 0.058622345 0.120321155 0.016970051
000170 d2 58 61 bd dd e7 92 3e 05 63 64 ba c6 ad bb bd
       -0.055016346 0.28692523 -0.0008712265 -0.09164004
000180 71 d3 3e be f6 26 16 3e 8b 45 ce bd b6 4e ab 3d
       -0.18635346 0.146633 -0.10071858 0.08364622

fc_layers.1.weight f4 [15, 100]
000000 fa dd b3 bb 40 2c 8a 3d 6b 81 95 3b 05 3f 1c bd
       -0.005489108 0.06746721 0.004562547 -0.038146038
000010 fd 27 9d 3c 88 d5 87 3c 14 34 06 be 70 95 47 3e
       0.019184107 0.016581312 -0.13105804 0.194906
000020 cb 77 63 bc ed 7d 63 3d 33 2f 3d be 9e ed 8f 3d
       -0.013883541 0.055540014 -0.18475036 0.07027744
000030 59 3d 96 bc f8 75 a5 3d d4 83 25 3e 04 22 7e bd
       -0.0183398 0.080791414 0.1616357 -0.06204416
000040 41 da 4d be b7 33 11 bd 4c 44 7d 3e b2 b6 c2 3d
       -0.20102789 -0.03544971 0.24733084 0.095075026
000050 dc c6 b4 bd 3f 0f 8b bd a5 97 32 3d ae 3e 90 3e
       -0.08826992 -0.06790017 0.04360165 0.2817282
000060 29 57 24 be 1d f6 13 be d0 d8 33 3e 79 b5 86 3d
       -0.16048874 -0.14449354 0.17563176 0.06577582
000070 b1 1b 48 be 13 3e 84 3e 22 01 65 3d 76 37 aa 3e
       -0.19541813 0.2582861 0.055909283 0.33245438
000080 49 5a 2d 3e 28 87 38 be 4f f1 31 be 9f ce ac 3d
       0.16928972 -0.18020308 -0.17377208 0.08437847
000090 b1 cc a4 3b 65 d5 fd bd ce 21 b9 bd fa b2 41 3e
       0.005029284 -0.123942174 -0.09039651 0.1891593
0000a0 8b 36 9f 3d 98 ed f5 3d d6 1c ad 3d 34 9e 7c 3d
       0.07774075 0.12008208 0.08452766 0.06167431
0000b0 20 12 ca bd 04 dc 2d 3e 74 2e af bd b1 30 46 be
       -0.09866738 0.1697846 -0.08553782 -0.19354512
0000c0 72 92 4c 3d d0 fc df bd 52 8b e4 3d d9 38 bf 3d
       0.04994435 -0.10936892 0.11159386 0.09337015
0000d0 a8 a4 5c 3e 10 85 6a 3e 54 a4 0a 3d 23 e2 00 3e
       0.21547186 0.22902322 0.03384812 0.12586264
0000e0 21 c5 80 bd 60 f9 18 be 65 d7 bd bd a8 cc 79 3d
       -0.06287599 -0.14938879 -0.09269599 0.06098619
0000f0 6a 01 93 bd 58 e0 19 3e 5a 2a e2 bd f3 0c 26 3d
       -0.07178004 0.15026987 -0.11043234 0.040539693
000100 4e c2 28 bd 31 d1 9d bd 50 61 91 3d cb aa 99 bd
       -0.04120093 -0.07705916 0.07098639 -0.07503279
000110 2e 51 84 be c4 e5 19 3e 86 5a 10 be d6 a6 f6 3d
       -0.25843185 0.15029055 -0.14097032 0.1204354
000120 3b 1d 4a be c3 4c b7 bd 2c 41 05 be d6 93 a3 bd
       -0.19737713 -0.08950188 -0.13013142 -0.07987182
000130 2a 65 b8 bd 63 79 0d 3e c8 03 a5 3d 36 2a e1 3d
       -0.090036705 0.13815837 0.08057362 0.10994379
000140 5d 4c 84 bd 37 84 5b bd ec a8 1b 3e 38 25 65 3e
       -0.06459878 -0.053592887 0.15201157 0.22377479
000150 90 52 d3 bd 5b 36 25 3e 09 dd 52 be e7 43 be 3c
       -0.10318482 0.16134016 -0.2059213 0.023225738
000160 b3 30 e3 bd ee 5a 98 3d 92 16 aa ba cb fd 29 be
       -0.11093273 0.074392185 -0.0012976697 -0.1660072
000170 cb 8a 1a be ac fe 5e 3d 07 bd 40 3e 82 9a 27 3d
       -0.15092008 0.054442093 0.18822108 0.040918835
000180 7d 84 fb bc 00 8f 14 bc 7a db 0d be 77 31 4e 3e
       -0.030702824 -0.009067297 -0.13853255 0.20136057
000190 53 72 aa 3d 1a 5e bd bd 52 44 1c be 12 43 bb 3b
       0.08322587 -0.09246464 -0.15260437 0.0057147825
0001a0 52 d0 ab 3c af 9f 67 3e 7a 5a 39 bd ed a4 5f be
       0.020973358 0.22619508 -0.0452523 -0.21840258
0001b0 73 f6 2c be 0b 8d 4b 3e b6 fd cc 3d 2d 80 07 3e
       -0.16890888 0.19878022 0.10009329 0.13232489
0001c0 4a e5 25 be 16 0e 92 bd d3 4f 19 be d2 44 66 be
       -0.16200748 -0.07131593 -0.14971857 -0.2248719
0001d0 c6 10 21 3d ff 60 38 3e f3 1a 64 bd 8a 2f 2a be
       0.039322637 0.18005751 -0.055689763 -0.16619697
0001e0 6e 8e a0 3d f2 bb f3 3c 9b 45 79 bd ce 5c fd 3c
       0.07839666 0.029752705 -0.060857397 0.030928042
0001f0 2b 6a 3e 3e 34 9d 3f be ff 29 61 be 3b 17 e0 bc
       0.18595187 -0.18712312 -0.21988676 -0.027354827
000200 c9 9a 11 be 6e 1f 03 3e ca ed 42 3e e2 ab ea 3d
       -0.14219202 0.12804958 0.19036022 0.11458565
000210 cc ee ca bd 17 32 20 bd 0c 8a 98 be a9 de 4c 3e
       -0.09908828 -0.03911027 -0.2979282 0.20006813
000220 96 12 d0 bd 17 63 ec 3c 2e 3e fb bd b1 41 66 bd
       -0.10159795 0.028855843 -0.12267719 -0.056214992
000230 dd 5f 9a bc e2 27 93 bd d2 7a 14 be b6 96 73 bc
       -0.01884454 -0.071853414 -0.14499977 -0.014867475
000240 93 68 84 3d f3 47 f4 3d 4e b2 84 bd 51 c5 16 3e
       0.064652584 0.11927786 -0.064793214 0.14723708
000250 96 3c b8 bd 5b e5 2e bd db bf f6 3c 4a 86 10 be
       -0.08995931 -0.0426992 0.03012078 -0.14113727
000260 c9 22 38 3e e3 01 5f bd 90 6b 5f 3d 1a 36 f3 3d
       0.1798202 -0.05444516 0.05454594 0.118755534
000270 d0 bd b6 bd 07 c7 e5 bd 3c 5c 14 be a9 31 57 3e
       -0.089229226 -0.11219602 -0.1448831 0.21015038
000280 03 b3 13 3e b3 a4 88 3c 4d 96 91 3d e7 f2 ac 3d
       0.14423756 0.016680097 0.07108746 0.084447674
000290 ee 42 cc bd 1b 83 ed 3d 45 a4 e3 bd 8c 1a ef bd
       -0.09973703 0.11597272 -0.11115316 -0.11674985
0002a0 13 98 ce 3d 94 f1 36 3e 44 8a ef 3d ee 60 b6 bd
       0.100875996 0.17865592 0.11696294 -0.089052066
0002b0 b4 a7 8c 3d 17 0a c7 bd 4a 21 9a bb e8 72 5b 3e
       0.06867924 -0.09718721 -0.0047036754 0.21430552
0002c0 d5 d0 8e 3e be 2c b5 3d e7 bf 29 bd 27 08 c7 bd
       0.278937 0.088464245 -0.041442778 -0.09718352
0002d0 21 ce 0c 3e 3d cc 1b be 4a 3d 0f be fb 0c d1 bd
       0.13750507 -0.1521463 -0.13988224 -0.10207554
0002e0 e8 79 8e bc 61 69 c1 3c af ad 0d 3e 4e c4 6f bc
       -0.017392114 0.023609819 0.13835786 -0.014634205
0002f0 c0 c6 ad bd d7 6b d9 bd 39 d4 b1 bc 2b 77 f1 bc
       -0.08485174 -0.10616272 -0.021707641 -0.029475769
000300 3d 26 d2 3d 20 cf 9c 3e 7a 52 1f be be 47 ba 3e
       0.102611996 0.30626774 -0.15558806 0.3638286
000310 08 0f bb 3d 25 e7 0e bd 56 eb 0c 3e 60 f8 01 bd
       0.09133726 -0.034888405 0.13761649 -0.03173101
000320 15 a4 4e 3d 5b 61 6a bd 9b fd 42 3c 98 0c 9d be
       0.05044945 -0.05722175 0.011901285 -0.3067367
000330 d8 77 3d 3d 52 0b 3a 3d 7b 54 b3 3b 06 8b 2b 3e
       0.04625687 0.045420952 0.0054727173 0.16752252
000340 2c e4 43 3e be 0f e2 bc d6 14 3a be ba 77 01 be
       0.1913001 -0.027595397 -0.18172011 -0.12643328
000350 97 a5 59 3d 12 48 6f bd 48 2a 83 be df 44 37 bd
       0.053136434 -0.05841834 -0.25618196 -0.044743415
000360 d4 eb 50 3e 89 18 49 3c 92 2e bc 3d 18 10 d4 bd
       0.20402461 0.012273916 0.0918857 -0.10354632
000370 0d a8 92 bd 7b 19 36 3e e4 a0 06 bd 2a e2 87 be
       -0.071609594 0.17783158 -0.03286828 -0.26539737
000380 b5 a7 2c be 42 92 3d bd 20 47 25 be 04 2e f8 3d
       -0.1686085 -0.04628206 -0.16140413 0.12118152
000390 62 a6 d4 3d 1f 3c e1 bc df 9f 32 be de 50 ad bc
       0.103832975 -0.027494488 -0.17443798 -0.021156725
0003a0 e9 32 5b 3d 9d e8 73 3e 34 2a 52 3d f4 64 24 be
       0.05351535 0.23819204 0.05130978 -0.16054136
0003b0 ac e8 37 bd a3 b6 f8 bb b5 87 94 3d e7 7b b9 bd
       -0.044899628 -0.0075901314 0.072524466 -0.090568356
0003c0 f8 2c 69 3d 4f d2 da bd fc d6 24 3d 63 24 d7 bd
       0.05692765 -0.106846444 0.040244088 -0.10504987
0003d0 04 20 61 3e d3 f4 6c bd 5c 53 3b 3e f3 bd 8c 3c
       0.21984869 -0.05785067 0.18293518 0.017180419
0003e0 e6 ca 1a 3e f2 67 6b be 80 d3 ee 3d bb 93 ba bc
       0.15116462 -0.2298887 0.11661434 -0.022775522
0003f0 65 b8 98 3e f4 f4 02 3e 8f 57 c5 3d 50 eb 18 be
       0.29828182 0.12788755 0.09635841 -0.14933515

fc_layers.1.bias f4 [15]
000000 07 e7 6c bd 7f 53 b9 3d 90 92 8b 3e 5a d4 dd 3d
       -0.057837512 0.09049129 0.27260256 0.108315185
000010 db e0 13 be dd 5b 2b 3b 32 e6 81 3d ef bb 47 bd
       -0.14441244 0.0026147284 0.063427344 -0.04876321
000020 22 65 56 bd 3e 85 b4 bd 9e 01 d5 3d ab 22 21 bd
       -0.05234254 -0.088144764 0.10400699 -0.039339703
000030 cd 14 06 bd 99 a9 81 be 51 92 c2 3d
       -0.03273468 -0.25324705 0.09500564

exp_avg f4 [10, 1, 5, 5]
000000 e6 9e 80 3e 2d 99 50 3e 28 d8 83 3e 02 9c 76 3e
       0.2512123 0.20370932 0.25750852 0.2408295
000010 12 f5 bf 3e 2c 08 3b 3e 14 86 66 3e 0f 78 5b 3e
       0.3749166 0.18264836 0.22512084 0.21432517
000020 fa 20 05 3e 01 a4 82 3e fe eb 22 3c 63 97 a2 3c
       0.13000861 0.2551575 0.00994396 0.019847577
000030 3f c3 c1 bd 52 7d ca bd cc d4 ca bc 88 6f 28 bd
       -0.09461068 -0.09887184 -0.024759673 -0.04112199
000040 e0 ed 35 bd 97 7d 8b bd 21 73 9a bd 24 56 2e bd
       -0.04441631 -0.06811064 -0.0754149 -0.04256262
000050 cc bb 01 3d c1 34 0f bd 1f 22 e6 bd 2a be b2 bc
       0.031673238 -0.03496242 -0.11236977 -0.021819193
000060 6c 5c 07 3d 3f 8d c3 bf 4e 5e d4 bf 01 a0 dd bf
       0.033047125 -1.527748 -1.659128 -1.7314454
000070 05 d0 1e c0 f9 6a 19 c0 d1 e4 b9 bf ba b6 dc bf
       -2.4814465 -2.397154 -1.4522954 -1.7243264
000080 f2 31 ee bf 2c 45 28 c0 52 c2 31 c0 3b 78 f2 bf
       -1.8608992 -2.629222 -2.7774854 -1.8942941
000090 c2 2f fd bf ae bb 15 c0 3c 8c 32 c0 e2 7b 3f c0
       -1.97802 -2.33958 -2.7898092 -2.9919362
0000a0 1a 7d 08 c0 77 92 07 c0 16 19 13 c0 c8 9b 3f c0
       -2.1326356 -2.1183145 -2.2984061 -2.9938831
0000b0 b7 49 48 c0 51 2e 11 c0 3b e5 11 c0 7e 7f 06 c0
       -3.1294992 -2.268452 -2.279616 -2.1015315
0000c0 d7 8a 2c c0 a1 b8 3e c0 65 7a 55 bf f5 88 47 bf
       -2.695974 -2.9800189 -0.83389884 -0.77943355
0000d0 3b 8f 1a bf 8c b3 f7 be 36 2b 97 be 40 6b 8e bf
       -0.603748 -0.4837917 -0.29525155 -1.112648
0000e0 6e a0 4b bf 24 2c b3 be c4 31 70 3d 2b b4 98 3d
       -0.7954167 -0.34994614 0.05864121 0.07456239
0000f0 54 40 50 bf 23 8a fd be 84 4d 47 bb 6f 0c 61 3e
       -0.81348157 -0.49519452 -0.0030411193 0.219774
000100 26 28 b7 3e 3c b4 ed be bf a8 d1 be 87 5a 32 bc
       0.35772818 -0.4642657 -0.40949056 -0.010885841
000110 16 c5 07 be 3b 16 ee 3d 9e 4d 0e bc c8 42 bb bd
       -0.13258776 0.11625334 -0.008685498 -0.09143597
000120 a7 09 48 3e ec f3 7c 3d 9f 3d 89 3e cd 48 e2 be
       0.19534932 0.06175606 0.26804826 -0.44196168
000130 aa c6 1a bf 15 13 1b bf 48 ad 07 bf 54 04 01 bf
       -0.6045939 -0.6057599 -0.5299878 -0.5039723
000140 b9 42 99 be f0 6e a1 be 16 52 b1 be 1b 6f bd be
       -0.29933718 -0.3152995 -0.3463294 -0.3699883
000150 9f bd d7 be f7 c4 71 bd 23 38 c1 bd b7 de 90 be
       -0.42136857 -0.05902573 -0.09434535 -0.28294918
000160 6f c2 0c be a6 a2 ad be f2 87 8e be 12 8e 92 be
       -0.13746046 -0.33913153 -0.27838093 -0.28624016
000170 4c 18 e6 be e7 f1 b4 be 8d 7c b4 be e3 94 a2 be
       -0.44940412 -0.35340807 -0.35251275 -0.31754217
000180 21 c1 dd be 9c c6 1d bf b0 d0 07 bf 1e 78 01 bf
       -0.43311408 -0.6163118 -0.53052807 -0.5057391
000190 a3 7c c0 bd 45 e6 3f be 8c 6e 57 be c0 af 2a be
       -0.093987726 -0.18740185 -0.21038264 -0.16668606
0001a0 d1 6b 46 bd 45 08 d9 bd 60 a7 29 be bd c0 87 be
       -0.048442665 -0.105972804 -0.16567755 -0.26514235
0001b0 7b bf 59 be 35 31 2c be e7 18 86 be cf 0e c0 be
       -0.2126445 -0.16815646 -0.26190874 -0.37511298
0001c0 b0 b2 f8 be d3 3b b8 be 49 12 06 be eb 33 9f be
       -0.48573828 -0.35983142 -0.13092913 -0.31094298
0001d0 7a 12 ea be b2 c0 19 bf 10 33 ea be f3 2f 53 be
       -0.45717221 -0.60059655 -0.45742083 -0.2062376
0001e0 b3 37 d7 be 90 16 06 bf 89 54 ff be 2c b7 de be
       -0.42034683 -0.5237818 -0.49869183 -0.43499124
0001f0 c9 d8 42 be 3d 69 82 3e 23 d6 b5 3e 4a dc f2 3e
       -0.1902801 0.25470915 0.35514936 0.47433692
000200 41 8f d6 3e 94 23 be 3e 0b 38 82 3e c6 c6 75 3e
       0.4190617 0.3713652 0.25433382 0.24001607
000210 6a 09 8f 3e 9a 30 7f 3e 35 4c 3d 3e e0 91 12 3e
       0.2793687 0.24920884 0.18486102 0.1431346
000220 c3 f9 3c 3e f7 ff a1 3e 5f 24 88 3e 1c 94 34 3e
       0.18454652 0.31640598 0.2659025 0.17634624
000230 2d bb 06 3e 55 00 29 3e 8b 90 8b 3e d2 72 94 3e
       0.1315734 0.16504033 0.27258715 0.2899385
000240 65 0f 3f 3e fa 5d 3f 3e 33 2b 8c 3e 70 db 8f 3e
       0.18658216 0.18688193 0.27376708 0.28097105
000250 2e 09 b8 3e 31 44 3c 3e f9 fd a4 bf 94 2f bf bf
       0.35944504 0.18385388 -1.2890006 -1.4936395
000260 26 1c fb be b8 9e 26 3e d3 f7 51 3f 00 53 89 bf
       -0.49044913 0.16271484 0.82018775 -1.0728455
000270 ed 17 5d bf a9 bb 89 be a3 f3 2f 3e 39 74 ce 3e
       -0.8636463 -0.26900986 0.17182784 0.40323046
000280 8c a7 6f bf b4 75 ee be 0a 97 7b be 75 32 0e be
       -0.9361503 -0.46574175 -0.24569336 -0.13886435
000290 ff 4b fb bc 50 c2 30 bf f5 3a 8d be 01 68 1c 3d
       -0.030675886 -0.690465 -0.27584043 0.038185123
0002a0 46 a9 fb be 8d e3 d9 be f9 75 43 bf 0f 6f 08 be
       -0.49152583 -0.4255642 -0.76351887 -0.13323615
0002b0 1d 49 49 bd 20 12 bc be 58 cd 3e bf 33 74 16 3f
       -0.049141992 -0.36732578 -0.7453208 0.58771056
0002c0 88 25 f8 3e 5a a4 35 3e 4b 54 1b 3e 33 cf 89 3e
       0.48466134 0.17738476 0.15168874 0.26915893
0002d0 59 21 89 3e f7 1c 99 3e a3 3a 51 3e 55 c6 98 3d
       0.26783255 0.2990491 0.20432524 0.07459704
0002e0 08 d2 9f 3e 2c c6 f9 3e 51 b7 fb 3e bd c4 a4 3e
       0.3121493 0.48784006 0.49163297 0.3218135
0002f0 e1 f6 5a 3e 36 45 fe 3e 99 fa f7 3e c0 e8 10 3f
       0.2138324 0.4966218 0.48433378 0.5660515
000300 bf 44 7a 3e 02 3b 0a 3e d5 c2 9d 3e 2d ff a9 3d
       0.24440287 0.13499072 0.30812708 0.08300624
000310 af e7 e4 3d 8e e5 a6 bd 7c 8f 0e bd 52 17 7f 3e
       0.11177003 -0.08149253 -0.034804806 0.2491124
000320 20 33 ef 3d 6a ad ab 3d c6 0f 8f 3e ae a3 44 3f
       0.11679673 0.083826855 0.27941722 0.76812255
000330 34 b2 2a 3f dc fc bc 3e 8c 9e 6d 3e 3c c8 8f 3e
       0.66678166 0.36911666 0.23205012 0.28082454
000340 88 9e 48 3f 2d fc 49 3f 33 44 87 3e f5 6b 8c 3d
       0.783669 0.78900415 0.2641922 0.06856529
000350 91 2b 20 3d 70 35 0f 3f ee e8 19 3f ba 93 df 3e
       0.03910405 0.55940914 0.6012105 0.43667394
000360 b6 2d 64 3e 43 49 67 3e 74 04 4a 3f e6 08 45 3f
       0.22283062 0.22586541 0.78913045 0.769667
000370 ec a2 da 3e ee a0 83 3e a9 19 91 3e 9b ba 3d 3f
       0.42702425 0.25708717 0.2833989 0.7411286
000380 91 3c 4a 3f d5 86 2f 3f 52 37 25 3f 8b fc 00 3f
       0.78998667 0.6856511 0.6453754 0.5038535
000390 4d 09 25 3f e5 aa 35 3f 72 eb 1b 3f 6d 26 10 3f
       0.64467317 0.7096389 0.60906136 0.56308633
0003a0 3d 0f 0b 3f e1 bd 34 3f 4a f2 5b 3f 4a fc d0 3e
       0.54320127 0.7060223 0.8591658 0.4081748
0003b0 50 69 e2 3e a5 ef eb 3e a6 75 1a 3f c9 aa 14 3f
       0.44220972 0.46081272 0.6033577 0.580731
0003c0 e6 7a 85 3e 70 16 73 3e a9 05 8d 3e 2e cb ea 3e
       0.26070327 0.23739028 0.2754338 0.4585814
0003d0 81 e0 00 3f e1 f0 8f 3e f9 a8 ab 3e 39 55 7d 3e
       0.50342566 0.28113464 0.33527353 0.24739541
0003e0 16 52 d1 3e 32 4c 08 3f
       0.4088294 0.53241265

exp_avg_sq f4 [10, 1, 5, 5]
000000 79 63 5e 40 ae ef 7a 40 b5 56 85 40 a8 30 8c 40
       3.4748213 3.920879 4.1668344 4.3809395
000010 b0 36 8e 40 d0 a0 63 40 6f 7d 83 40 76 f3 92 40
       4.4441757 3.5566902 4.1090617 4.5922194
000020 1a bb a4 40 b4 46 9e 40 0e 54 75 40 36 cb 8f 40
       5.1478395 4.9461308 3.8332553 4.493556
000030 0d 4f a6 40 ae d0 b5 40 1a ea ab 40 23 c1 72 40
       5.1971498 5.6817236 5.372327 3.7930381
000040 73 b8 87 40 75 04 9b 40 9f 80 9f 40 e6 e1 9f 40
       4.241266 4.844294 4.984451 4.9963255
000050 bd a9 63 40 44 6e 76 40 d6 2b 8a 40 9b fb 8f 40
       3.557235 3.85048 4.317851 4.4994636
000060 13 11 8e 40 2e 74 b9 42 af e7 af 42 91 6b a3 42
       4.4395843 92.72691 87.95251 81.71009
000070 bb cf 9f 42 8c 25 a9 42 8f 02 cf 42 9a 68 ba 42
       79.90572 84.57333 103.505 93.2043
000080 5b a8 a4 42 fb 73 9b 42 2e 31 a7 42 30 08 d6 42
       82.32882 77.726524 83.596054 107.01599
000090 ec 05 bc 42 d9 a6 a4 42 70 a9 9f 42 3f 95 a2 42
       94.011566 82.325874 79.83093 81.2915
0000a0 94 9a d2 42 c5 bc c7 42 04 bf b5 42 f9 7b a5 42
       105.30191 99.86869 90.87308 82.742134
0000b0 c0 6f a5 42 cb 5d c9 42 14 64 cb 42 9b 7b c8 42
       82.71826 100.68319 101.695465 100.24142
0000c0 91 ea b2 42 b0 0c b3 42 1e 5e a9 42 b2 aa b2 42
       89.45814 89.52478 84.68382 89.33339
0000d0 30 01 f3 42 fa 98 09 43 b7 41 06 43 ca b3 9f 42
       121.50232 137.59756 134.2567 79.85115
0000e0 85 aa aa 42 e2 95 ea 42 7f d1 02 43 fa c3 fa 42
       85.333046 117.29274 130.81834 125.38277
0000f0 b0 9a a3 42 64 af b3 42 7e d1 ff 42 38 88 0c 43
       81.802124 89.84256 127.909164 140.5321
000100 ca 90 02 43 3c de b3 42 a7 39 bd 42 1b ad f6 42
       130.56558 89.93405 94.6126 123.3381
000110 8b 85 fd 42 af 0f f5 42 46 64 ed 42 b3 34 f7 42
       126.760826 122.53063 118.69585 123.60293
000120 71 96 0c 43 04 89 07 43 3d 89 0c 43 74 ea 1b 42
       140.58766 135.53522 140.53609 38.97896
000130 df 06 1a 42 dc 99 1b 42 9e 3d 1b 42 59 8d 14 42
       38.50671 38.900253 38.810173 37.138035
000140 b9 9b 22 42 91 8b 1b 42 b2 f0 18 42 24 de 16 42
       40.652073 38.886295 38.235054 37.716934
000150 1f 4a 16 42 86 15 57 42 28 0e 5b 42 24 e2 51 42
       37.572384 53.77102 54.763824 52.47084
000160 98 f9 47 42 10 f7 47 42 d7 f8 8f 42 83 25 9a 42
       49.993744 49.991272 71.986015 77.073265
000170 c7 a6 8e 42 1b 27 89 42 b8 8e 7b 42 84 68 9e 42
       71.32574 68.57638 62.889374 79.20413
000180 13 b3 a6 42 5d da 9a 42 74 c5 94 42 25 9e 85 42
       83.349754 77.42649 74.38565 66.808876
000190 29 56 16 40 22 f3 1d 40 91 2a 1f 40 1d 2a 1b 40
       2.3490088 2.4679646 2.486973 2.4244454
0001a0 2c 06 11 40 d2 81 1f 40 e0 57 29 40 f8 92 21 40
       2.2660017 2.4922986 2.6459885 2.5245953
0001b0 38 9a 1a 40 ca cf 0e 40 71 30 23 40 15 f8 2f 40
       2.4156628 2.2314324 2.5498316 2.7495167
0001c0 5a 31 28 40 77 2d 1d 40 b8 13 0e 40 e0 0d 12 40
       2.6280122 2.4559 2.2199535 2.2820969
0001d0 45 4c 19 40 d2 61 11 40 91 00 07 40 63 fb 01 40
       2.3952801 2.2715955 2.1094096 2.0309684
0001e0 60 a6 0a 40 8a c5 10 40 ea cf 08 40 a6 de fd 3f
       2.1664047 2.2620568 2.13769 1.9833572
0001f0 82 e6 02 40 7d 1d 19 41 72 e5 2f 41 70 f5 38 41
       2.045319 9.569699 10.993517 11.559921
000200 b5 c4 40 41 a5 46 3e 41 bb 82 29 41 b9 e3 36 41
       12.048024 11.892247 10.594417 11.430596
000210 6a ae 33 41 90 aa 34 41 7e 97 3c 41 87 9e 2e 41
       11.230082 11.291641 11.786985 10.913703
000220 a8 fb 3f 41 4c 46 53 41 28 87 4d 41 84 79 37 41
       11.9989395 13.204662 12.845497 11.467167
000230 ac 93 32 41 4c 00 46 41 a4 72 6a 41 64 28 6c 41
       11.161053 12.3750725 14.652988 14.759861
000240 b7 e3 4c 41 13 8c 2e 41 6f 33 47 41 86 33 68 41
       12.805594 10.909198 12.450057 14.512579
000250 2c f0 6c 41 41 d7 5b 41 a7 c1 90 43 f3 f7 97 43
       14.808636 13.740052 289.5129 303.9371
000260 56 9a 7b 43 54 fd 51 43 31 9b 51 43 c8 52 68 43
       251.60287 209.98956 209.60622 232.32336
000270 ad 2e 80 43 22 75 5c 43 f9 fd 4c 43 c3 a4 58 43
       256.36465 220.45755 204.99208 216.6436
000280 30 50 41 43 9d 5b 4a 43 00 07 53 43 81 53 5a 43
       193.31323 202.35786 211.02734 218.32619
000290 d6 8f 5f 43 3a 1c 4a 43 ea f5 4d 43 db b4 4b 43
       223.56186 202.11026 205.9606 203.70647
0002a0 bb 03 62 43 fd 89 59 43 48 8d 50 43 1d 24 56 43
       226.01457 217.53902 208.55188 214.14107
0002b0 f3 d4 4c 43 b6 86 54 43 e6 be 53 43 04 4a 38 43
       204.83183 212.52621 211.7457 184.28912
0002c0 3e 5f 25 43 19 16 1d 43 fb c8 2e 43 5e 46 37 43
       165.37204 157.08632 174.78508 183.27487
0002d0 a1 63 2c 43 21 5f 0e 43 70 53 0b 43 d5 55 0d 43
       172.38918 142.3716 139.32593 141.33528
0002e0 a7 f0 0f 43 97 b5 36 43 ad 40 14 43 92 60 11 43
       143.94005 182.70934 148.25264 145.37723
0002f0 78 0a 18 43 e9 c0 17 43 60 6e 3f 43 d2 12 19 43
       152.0409 151.75356 191.43115 153.07352
000300 45 f8 1d 43 6d dd 36 43 81 e6 2e 43 1b dc 5c 43
       157.9698 182.86494 174.9004 220.85979
000310 4e f2 2c 43 11 3e 28 43 3b e1 39 43 fc 63 35 43
       172.9465 168.24245 185.8798 181.39056
000320 d0 27 d7 41 a6 8b cf 41 db 00 e3 41 2c 31 28 42
       26.89444 25.943188 28.375418 42.04802
000330 0b fb 30 42 df 87 e3 41 04 12 d2 41 0a 74 de 41
       44.24516 28.441343 26.258797 27.80666
000340 76 0c 28 42 c4 8d 2e 42 d5 43 fc 41 6b be cc 41
       42.01217 43.638443 31.533121 25.592978
000350 f0 bc c3 41 ce 26 11 42 10 65 25 42 9e f6 d5 41
       24.467255 36.287895 41.348694 26.745419
000360 4a 5e b9 41 e0 ba b3 41 82 93 fb 41 57 e0 0f 42
       23.17104 22.466248 31.447025 35.96908
000370 5c 34 cd 41 3f 47 bd 41 4a c6 ae 41 b1 08 d9 41
       25.650566 23.659788 21.84682 27.129244
000380 65 7c e4 41 fe ee 50 41 29 96 40 41 5d 0c 44 41
       28.56074 13.058348 12.03666 12.253018
000390 3f 86 75 41 33 a0 8a 41 57 00 3c 41 1c 13 34 41
       15.345275 17.328222 11.750083 11.254665
0003a0 ab e0 3e 41 61 2e 57 41 6f a2 4e 41 bf 26 3f 41
       11.929851 13.448823 12.914657 11.9469595
0003b0 e1 07 38 41 23 08 31 41 7a 3e 30 41 99 d0 37 41
       11.501924 11.0644865 11.015253 11.488427
0003c0 8a 55 3c 41 8f be 30 41 27 73 31 41 9e cd 45 41
       11.770884 11.046523 11.090613 12.3626995
0003d0 5e a8 54 41 2d 20 42 41 30 65 2c 41 c8 8b 30 41
       13.291105 12.132855 10.774704 11.034126
0003e0 ee ff 44 41 4c 69 4d 41
       12.312483 12.838207

exp_avg f4 [10]
000000 12 c6 06 be 40 f8 d2 bf ca 1d 3b be a6 96 14 3f
       -0.13161495 -1.648201 -0.18273082 0.5804237
000010 04 44 d7 bd 4e 98 fc be 99 6d 22 40 63 19 9f 3f
       -0.1051102 -0.4933495 2.5379393 1.2429622
000020 26 c4 b7 3e 88 25 cf bd
       0.35891837 -0.101145804

exp_avg_sq f4 [10]
000000 57 54 e8 40 7f e8 de 43 fd 64 82 43 33 49 49 43
       7.2602954 445.81638 260.78897 201.28593
000010 0a 3f 4e 40 23 05 86 41 17 0e 7e 44 16 7a fe 43
       3.2225976 16.752508 1016.22015 508.9538
000020 8f bf ed 42 4a 3a 8f 42
       118.87414 71.613846
